DApp/healthcareDapp/api/models/best_model.pth (torch, 13881 bytes, 5 tensors)

net.0.weight f4 [64, 8]
00000000: 828f dbbe d711 92be 0f58 dc3b 22be 053e
00000010: 4796 85be cdaf b3bd 2748 0cbe 9876 edbd
00000020: c2ec 8dbe 3a67 33be 363e 3c3e 4138 b73e
00000030: 6c05 2c3d 67a3 a3be 41f2 f23e 3635 e9bd
00000040: 8df2 713d 14c9 c4be 0d78 b7be 5fd6 0b3d
00000050: a803 833e 1ed3 afbd 3aae 4dbd 91b0 1ebe
00000060: bd8f 6cbd a3c1 e4bd 3b95 a4bb dc03 ee3d
00000070: 946e 2abe d480 653e 7b83 b73e 0a09 eb3d
00000080: fc99 893d 22f5 b5be e169 93bd 9339 31be
00000090: 942e d3be 3d49 2fbe 6ef0 95bd 608f 22be
000000a0: fbc1 88be 4908 bd3e c1a2 5c3c a921 a03e
000000b0: 30cc d1be 6e29 7d3e 329b 07be dcee 84be
000000c0: b841 70be c4c4 3c3e e241 57be 6bea 4dbd
000000d0: df49 353d 124f a23d 5e7b 77bc e76f 8e3e
000000e0: fb6f 08be 2923 bb3c 77f8 3ebe 50f1 ee3d
000000f0: 14c8 b0be 2430 60be 7924 ed3e f4c0 0cbe
00000100: a29c 90be d47b 5b3e fc5c 953d e169 a0bd
00000110: 79b8 843e 89bf d8bd df2a 003d c6ba 7abe
00000120: 5d77 253e 5716 813e 24e5 b63e 8cc0 e8bd
00000130: 6754 e23c 7eab a2be 68ed 763e f1e4 fe3d
00000140: 7b13 cf3d 38e0 71be 8e0d af3e 083a 82bd
00000150: 0e19 a3be 39c1 b6bc 6ec9 f93e 7d47 67be
00000160: ece2 2e3e 87e1 a5be 70cc b7be d9c7 673e
00000170: 3636 cbbe 3f69 74be 0ddb 413e c7f4 15be
00000180: 5868 ad3e 81b5 1ebe 3f06 b5bd 55f4 a03e
00000190: b8f7 403d 2bc6 543e b83a ed3c 33cf a73e
000001a0: 81b5 be3d 3068 153e 62d8 803d 537c 0f3d
000001b0: a228 9fbd e375 973e a0e2 9bbe 649b 4a3e
000001c0: bc08 e53c 86c1 4a3e b5ef 83be 413c acbe
000001d0: 2433 c3ba 64cf 9a3e b243 c8bd 48b1 81be
000001e0: 7e90 7d3e 69df 01be 03b1 d63c ad71 54be
000001f0: dd71 7c3d 812b a83e bf66 073f 574f 68bc
00000200: c974 27bd 95c4 40be 01c5 a6be f540 91be
00000210: dcbf 483d ebb9 44bd 0a6f bd3d 6eb9 26be
00000220: 023b cabd a9c0 b83e 236c a33e 624b 473d
00000230: 6bf6 e23c 04fb c2bd cb1e ce3e 7c51 93bc
00000240: b1ca dd3d 6db4 213e a1cc 9a3e a405 8e3d
00000250: af6a ecbd f929 943c 6746 9a3e 7389 6b3d
00000260: 323e 09be af57 f13d e114 52be 4dc9 d53d
00000270: 202b 93bd cf90 b13e f6ed f03e 8eb1 bc3e
00000280: 3b64 f8bd bb91 9abe f12d 933e 6593 ab3e
00000290: 9140 123e c632 6dbd 98cc ac3e 775c 553e
000002a0: 4f51 163e 09cb 66bd e563 cebe bf62 c4be
000002b0: 1122 93bb 916d 94be 0e56 00be 7200 343e
000002c0: d0eb e9bc a40a 263e c569 66bd cae4 6bbe
000002d0: cbe8 a2be 0b5b cdbe 28e9 783e 5b40 303e
000002e0: 6dbd 3ebe e522 24bd 08de 1a3c 51f3 8f3d
000002f0: cfec e73d 571e 28bc a619 db3e 8116 6c3d
00000300: c327 533d 693f 2a3e 1d3c 4bbe e3a1 b3bd
00000310: c28c 543d e729 97bd b12e 85be 46fb 8abe
00000320: 06f7 9bbb d8e1 adbc afe2 45bd a12d 8abe
00000330: 7d39 21bd 7d8b 87be 7157 aabe 4ed3 c73d
00000340: 1916 b43d b54e 03bd c179 a53e 54f2 6e3d
00000350: 3ab9 b4bd b138 713e adc3 fb3d f5ae 3f3e
00000360: f85d 023d 64ca c9bd b3c9 0cbe c450 233e
00000370: 2604 293e 762d 00bc 1580 d33e 5f36 823e
00000380: 332e 2fbc 2bd5 96bd a65b 713e 4673 43be
00000390: a139 c83c 28e5 733e 7b19 833e ab43 b13e
000003a0: 01af 6a3e 4cd0 4ebe ce32 a93d 75d3 48be
000003b0: 3a75 a63e a9e4 b63e 675d af3e b0c6 603e
000003c0: 5db8 80be 9c79 863e 56e2 b53d df64 f03d
000003d0: b6a0 d13d 67aa 5a3e 9852 ed3d fcd0 e93e
000003e0: 5f4f 533e 2394 033d 67f9 32be 3661 3d3e
000003f0: bc0a cabe dec1 8dbe 6824 9fbe 31f7 ac3e
-0.42882925 -0.28529236 0.0067243646 0.13060811 -0.26091215 -0.08773766 -0.13699399 -0.115948856
-0.27719694 -0.17519847 0.18383107 0.35785106 0.04199736 -0.31960604 0.4745045 -0.11387102
0.059069205 -0.3843466 -0.3583378 0.034139987 0.25588727 -0.08585189 -0.050214984 -0.15497042
-0.057754267 -0.11169746 -0.0050226725 0.1162183 -0.16643745 0.22412425 0.358425 0.114763334
0.06718823 -0.35538584 -0.07197929 -0.17307119 -0.41246474 -0.17117782 -0.07321249 -0.15875006
-0.26710495 0.36920384 0.013466538 0.3127568 -0.40976095 0.24722835 -0.13242796 -0.25963485
-0.2346257 0.18434435 -0.21021226 -0.050272387 0.044259902 0.07925238 -0.015105097 0.2781975
-0.13323967 0.022843914 -0.1864947 0.116671205 -0.34527647 -0.21893364 0.4631689 -0.13745481
-0.282445 0.21433955 0.07293126 -0.07832695 0.2592199 -0.105834074 0.031290885 -0.24485311
0.16158815 0.25212356 0.35721695 -0.113648504 0.027628137 -0.31771463 0.24114001 0.12446011
0.101111375 -0.23620689 0.3419003 -0.06358725 -0.31855053 -0.022308933 0.4878649 -0.22585864
0.17078751 -0.32398626 -0.3589816 0.2263483 -0.39689797 -0.23868273 0.18931217 -0.14644156
0.3386867 -0.15498926 -0.08839082 0.3143641 0.047111243 0.2077872 0.028958663 0.32775268
0.09311963 0.14590526 0.06291272 0.035030674 -0.07771422 0.29582128 -0.3044634 0.1978584
0.027958266 0.19800386 -0.2576882 -0.3363972 -0.001489256 0.3023635 -0.09778537 -0.25330567
0.2476215 -0.1268288 0.026207453 -0.20746489 0.061632026 0.3284569 0.52891153 -0.014179072
-0.04088286 -0.1882499 -0.32572177 -0.2836987 0.049011096 -0.048028868 0.09249695 -0.16281673
-0.09874536 0.36084488 0.3191844 0.048655875 0.027705392 -0.09520534 0.40257868 -0.01798319
0.10829676 0.15791483 0.30234244 0.069346696 -0.11543786 0.01808642 0.30131838 0.05750413
-0.13402632 0.117843024 -0.20515777 0.10438786 -0.0718596 0.34680793 0.4705655 0.36854213
-0.121284924 -0.3018931 0.28745988 0.3351089 0.14282443 -0.05790975 0.33749843 0.20836054
0.14679454 -0.056345973 -0.40310588 -0.38356587 -0.004490145 -0.28989843 -0.12532827 0.17578295
-0.028554827 0.16214997 -0.056253213 -0.23036495 -0.31818232 -0.40108523 0.24307692 0.1721205
-0.18626948 -0.04007234 0.00945235 0.07028831 0.113244645 -0.01026114 0.42793006 0.05763865
0.05155159 0.16625752 -0.1984715 -0.08771112 0.05189205 -0.07381039 -0.26012185 -0.2714483
-0.004759672 -0.021225855 -0.048311885 -0.26987937 -0.039361466 -0.2647361 -0.33269837 0.097571
0.08793277 -0.032057483 0.32319453 0.05833657 -0.08824392 0.23556782 0.122931816 0.18719085
0.031827897 -0.09853056 -0.13748817 0.15948778 0.16505489 -0.007823339 0.41308656 0.25432107
-0.010692167 -0.07364877 0.23570117 -0.19086942 0.024441542 0.23817885 0.25605378 0.3462194
0.22918321 -0.20196646 0.08261643 -0.19611914 0.32511312 0.3572133 0.34250948 0.21950793
-0.25140658 0.26264656 0.08881061 0.1173799 0.10235731 0.21354066 0.11588019 0.45667255
0.20635746 0.032123696 -0.17477952 0.18494114 -0.39461315 -0.2768697 -0.31082463 0.33782342

net.0.bias f4 [64]
00000000: 1cee eb3c 25a4 4fbe aea3 81bc a713 8bbe
00000010: 5500 b4bc 97a1 933d 208d d23d 66e5 21be
00000020: fb95 8ebe a05d 4c3e 893b a33d d430 9ebd
00000030: 12b3 a5be 08fa 90bd 66a1 49bc 504d 93be
00000040: ecdd dc3d 03d6 b93e dd18 873e 61aa 2fbe
00000050: b8c0 11be 5880 c53d ad6c 28be e939 1bbe
00000060: dde6 9a3e 3c44 55be 9e98 863d 8ec3 77be
00000070: 0430 c4b9 de34 b8bc 68c6 dbbc f106 b3bd
00000080: 4e62 24be 8a9c ebbc 37a7 7e3d ed93 963e
00000090: 9aec 243e 11c1 853d 112a 22be c657 203d
000000a0: 6971 dbbd 4c15 35be 5e24 7a3e 7ec5 6fbe
000000b0: 3aca 70be feef ebbc 6669 313e e2e5 2bbe
000000c0: 3326 d2be 3f5d 3e3e ad55 e23d 18fc 683d
000000d0: 446c 3e3e 07eb 2f3e 20fa 88be 3be7 f1bd
000000e0: e41d 01be 6642 cfbd 7aa8 58be b09b bebd
000000f0: d216 de3d f15f 4d3e 3cf3 52be 1a1f 07be
0.028800063 -0.2027746 -0.015825119 -0.2716343 -0.021972815 0.07208555 0.10280824 -0.15810165
-0.278488 0.1995759 0.0797034 -0.07724157 -0.32363182 -0.0707894 -0.012306547 -0.28769922
0.10784516 0.3629609 0.26386157 -0.17154838 -0.14233673 0.0964362 -0.16447707 -0.1515881
0.3025426 -0.2082681 0.06572078 -0.24195692 -0.00037419808 -0.022486147 -0.026828006 -0.08741558
-0.16053125 -0.028761167 0.062171187 0.29409733 0.16105881 0.06530965 -0.1583636 0.039146207
-0.10714991 -0.17683905 0.24427935 -0.23415181 -0.23514643 -0.02880096 0.17325363 -0.16786912
-0.4104477 0.18590258 0.110514976 0.05688104 0.18595988 0.171795 -0.2675333 -0.11811682
-0.12609059 -0.10120086 -0.21158019 -0.09307039 0.108441964 0.2005613 -0.20600599 -0.13195458

net.3.weight f4 [32, 64]
00000000: 68fd dcbc ab85 c93d 1035 923c 62ca 733e
00000010: aa2a 05be 42a1 c73d 3ca0 9f3d 973b 0b3d
00000020: 8eaf 393d 35fc cfbc 764f 763b 2511 b43c
00000030: 1dfa d93d 6dd0 d93c b7d6 e93d 61fd 59bd
00000040: 3e39 3d3c 8d97 dc3d d697 e83d ed1f 973d
00000050: a1ab 893c 4b68 36bd 4dac 1e3e df52 3c3e
00000060: a7fa 283d 1638 563d 2600 f03d 68c2 023d
00000070: bed1 35bc 0ab0 ff3b 7d11 fc3d c8ac e53d
00000080: 17bd ed3d b6ff 973d 4a65 803d e6e3 243e
00000090: c3e5 b33d 1fbc d53c cb0a 0b3d dfad 113e
000000a0: adc0 493e c03d f73d 0fc2 533c 3a7f b23d
000000b0: e851 54bd dddb 37bd 8183 99ba 0406 bf3b
000000c0: dd34 293e c93f cfbd d0ae a63c c2fa 793b
000000d0: 3c51 bd3d 9c0e 933d 7f86 a53d c16d 353e
000000e0: 5dd3 eabd 8217 a3bb 66ef a239 3b1e 553d
000000f0: dee4 e33d 5b34 413d 3f75 943d 4a1c bc3c
00000100: 3572 2cbe 253f 7d3c 85d3 003e 0c95 b7bd
00000110: cae6 bbbd 2926 173d 1d50 a13c b29d 9fbd
00000120: 97ef 3a3e a064 203d 67d7 04be c0db 7e3d
00000130: 4e42 733d 730a 643d 7613 433d 0766 d0bc
00000140: 39a5 513d 1ea6 183c cf6f 33bd 71af 11be
00000150: ec2d 49be 1870 47bd f72d 0fbe e8de cbbd
00000160: cc7c f63d c9d6 0a3d 3142 01be f6b1 5fbd
00000170: 418f a13c 979f 84bd f8ad e23c 7418 043d
00000180: fd52 133d 7247 693b 56a6 f83c 901e c13c
00000190: 4b9c 32bb 9464 bebd 3264 18bc fd09 0bbe
000001a0: 29de aebb 5e48 f8bd 7a3d bcbc ad71 00bd
000001b0: aca7 93bd 3fe7 6d3d 9139 85bd 6a90 163d
000001c0: e6fa 313d 1733 003d fc5f ddbd 4304 a83b
000001d0: 13fd 093e 2b56 61bc 58b5 84bc 7b7e 023d
000001e0: 4886 d0bc 2bc1 f23c 3c88 be3d 9e7c a23d
000001f0: a41e ac3d 8c5c 023e b5f4 b4bd 7b87 02be
00000200: 94c5 d0bd 7a54 f8bd 7af2 513d c403 3cbd
00000210: 24f1 023c 51c9 a2bd 13a4 963d 3c2c 8b3d
00000220: 9681 ce3d 67ab d0bd f41b 113d deb6 ac3d
00000230: 6075 77bc afae 35bc 7964 dfbd 9fd4 6f3d
00000240: 9a4f 89bd 33d8 f73d 5fdd 013d 1eaa 35bd
00000250: ebd9 c1bc 3306 2f3e 4230 2ebd 0fc3 e8bd
00000260: 8f84 6abd 5d12 123e 7684 13be 78f0 d0bd
00000270: 7dc0 19bd 8b56 943d 96e8 debc 3274 823d
00000280: 1820 d03d a684 6dbd e54d 26be 2f05 b73d
00000290: d648 d63d e147 d3bd 201f 0d3c 19f1 79bc
000002a0: 964c e2bd 61e5 67bc f5e8 e13c 2a66 51be
000002b0: c301 cebc 994f 223e f942 7ebd e397 c43d
000002c0: fa0e 7f3d f097 3f3d d470 753c e92c 9ebd
000002d0: f204 d13d f3fa 13bd 443e 0bbd 2e22 0f3d
000002e0: 4eed d13d d5b4 263d 9fa6 fcbc 90c8 ddbd
000002f0: 36f1 8b3d 641a e8bb f6b3 5e3b 93ac 74be
00000300: a9c0 e43d 11da 3abc ddc6 5ebb c184 e2bd
00000310: 61bc 38be 0662 833d 7f1b 1cbd b768 05bd
00000320: ed8b eb3d 0add d5bd e4ba c7bd c1bc 17be
00000330: 303d 24bc 095a c8bd d8c8 f3bb d8da f53d
00000340: cc1c b03d 8c63 ec3a 4086 8a3d 5f6b 8cbd
00000350: 9aff babd 91ba 663d b8c5 0dbd 458b 6fbd
00000360: 9379 e43d d576 a03d 0407 9fbd d4ab e83b
00000370: 5a37 903d 75b9 c0bd 37f7 31bd 2f96 14be
00000380: ab86 5fbd 8d74 b8bd e689 58be a679 2a3b
00000390: 21ae b13d e69f 65bb 94ab 743c 7569 0cbe
000003a0: 0089 a2bd 03b6 debd db81 ed3d 754e 1f3d
000003b0: 0c3e 1fbd a903 9fbd 7ba3 32bd 4774 0fbe
000003c0: da0f d33d c085 053e 1d5f 25bd b60c 17be
000003d0: e1bb f73d 5907 2abe b5cc a23a 48d8 dbbb
000003e0: 4c6a b23d d416 65bd 10ad c13d b3a7 e4bd
000003f0: 6cd6 89bc 8a13 b73d 3b0e 313d c9b0 66be
-0.026976302 0.09839948 0.017847568 0.23807672 -0.13004556 0.09747554 0.07794234 0.033992376
0.045333438 -0.025388816 0.0037583984 0.021980831 0.106434084 0.026588643 0.11417907 -0.053220157
0.011549292 0.107710935 0.113570854 0.07379136 0.016805472 -0.044533055 0.15495415 0.18390988
0.041254666 0.05229958 0.11718778 0.03192368 -0.01109737 0.007802968 0.12308023 0.11214596
0.11608332 0.0742182 0.06269319 0.16102561 0.08784058 0.02609068 0.03394584 0.14226483
0.19702406 0.12072325 0.012924685 0.08715673 -0.051835924 -0.044887412 -0.0011712165 0.0058295745
0.16524072 -0.10119588 0.020347029 0.0038143848 0.0924401 0.07180521 0.08082294 0.17717649
-0.114660956 -0.0049771676 0.00031077414 0.052030783 0.11127637 0.04716907 0.072489254 0.022962708
-0.16840442 0.015456949 0.12580688 -0.08963975 -0.09174879 0.036901627 0.019691521 -0.0779375
0.18255459 0.039158463 -0.12972794 0.06222129 0.059389405 0.055674028 0.04762598 -0.025439275
0.05118296 0.009316949 -0.0438078 -0.14227082 -0.19646424 -0.048690885 -0.13982378 -0.09954625
0.12035522 0.03389624 -0.12622906 -0.054613076 0.01972163 -0.06475752 0.027670845 0.032249883
0.035967816 0.0035595563 0.030352753 0.023574144 -0.0027253802 -0.092965275 -0.009301232 -0.13578029
-0.005336542 -0.12123178 -0.022978533 -0.03135841 -0.07209715 0.05808186 -0.065051205 0.036758818
0.043452166 0.031298723 -0.10809323 0.005127461 0.13475446 -0.013753454 -0.016199753 0.031858902
-0.025454655 0.029633125 0.093033284 0.07933925 0.08404282 0.12730616 -0.08835737 -0.12746994
-0.10193935 -0.121254876 0.051256634 -0.04590203 0.007992063 -0.07948554 0.073555134 0.067955464
0.1008331 -0.101889424 0.03542705 0.08433317 -0.015103668 -0.011089011 -0.109078355 0.05855238
-0.06704636 0.121017836 0.031705257 -0.04435169 -0.023663482 0.17092209 -0.04252649 -0.113653295
-0.057255324 0.14264818 -0.14405999 -0.10202116 -0.037537087 0.07243069 -0.027210515 0.06369819
0.101623714 -0.05798783 -0.16240652 0.089365356 0.10463111 -0.10316444 0.008613378 -0.015255236
-0.11049764 -0.014153809 0.027576903 -0.20449129 -0.025147324 0.15850677 -0.06207559 0.095992826
0.062270142 0.04677576 0.014980514 -0.0772341 0.10206021 -0.036127996 -0.033994928 0.034944706
0.102503404 0.0406998 -0.03084117 -0.1082927 0.06833117 -0.007083224 0.0033981777 -0.23893957
0.111695595 -0.01140453 -0.0033993043 -0.11060477 -0.18040611 0.06415181 -0.03811216 -0.032570567
0.11501298 -0.104425505 -0.097524434 -0.14818098 -0.010024354 -0.09782798 -0.007439714 0.12004632
0.085992426 0.0018035038 0.067638874 -0.06856417 -0.091307834 0.056330267 -0.034612387 -0.058482427
0.11156001 0.078351654 -0.0776501 0.0071005616 0.070418075 -0.09410373 -0.043448653 -0.14510415
-0.05457179 -0.09006605 -0.21146354 0.002601245 0.086757906 -0.0035037934 0.014933486 -0.13712104
-0.07936287 -0.1087456 0.115970336 0.03889318 -0.038877532 -0.0776437 -0.04361294 -0.140092
0.10305758 0.13039303 -0.04037391 -0.14750943 0.12096382 -0.16604365 0.0012420627 -0.0067091323
0.08711681 -0.055929974 0.09456837 -0.111647986 -0.016825877 0.08939274 0.04322646 -0.22528376

net.3.bias f4 [32]
00000000: e02f c43c 7915 1f3e 5f9b 3e3e 494b 3d3d
00000010: 97a6 a93d 3843 123e 017b 8b3d d442 a6bd
00000020: 6bf7 e5bd 1bdc 1cbd e7c9 043e 9c0e 1d3e
00000030: f4be 9f3d d1a2 c7bd 2230 f93c 2438 273e
00000040: 3950 d23c 12d0 0a3a 8cda c33c a117 c73d
00000050: df8d e33c 5ce9 463d 1cce d03d 328b e0bd
00000060: 3861 cebd 0c22 c1bc 6834 e33c 7d9e 8bbd
00000070: 1b43 7d3d efd8 6d3d 036a 1a3d 99de 9b3d
0.02394861 0.15535535 0.18613957 0.046214376 0.082837276 0.14283454 0.068105705 -0.08118215
-0.11228832 -0.038295846 0.12967645 0.15337604 0.07800093 -0.09747852 0.03041846 0.1633001
0.025673019 0.0005295287 0.023907922 0.09721304 0.02777761 0.048562393 0.10195562 -0.109640494
-0.10077137 -0.023575805 0.02773495 -0.068173386 0.061831575 0.058068212 0.037698757 0.076108165

net.5.weight f4 [1, 32]
00000000: ddff ea3d 72ff 0abe 17b8 49be 9dc7 68be
00000010: 9a36 403e b6a2 50be 0c8d 3c3e add5 4f3e
00000020: 4e16 dc3d 92b2 163d 1a4b 82be e7b7 61be
00000030: 02ea 0d3e 4cc7 4dbe 028d 53be 6356 78be
00000040: fafe d33d aae8 0e3e de13 4abe d403 28be
00000050: e6ab 0ebe 70b3 00be 949e 81be 16b6 5e3e
00000060: 51b8 253e 769e 0f3e 05cc 50be 1a80 edbd
00000070: 6dc8 063e e7ee 783e 5da4 153e bb27 323e
0.11474583 -0.13574007 -0.19699131 -0.22732396 0.18770829 -0.2037457 0.1841318 0.20296355
0.10746442 0.03679139 -0.25447923 -0.2204281 0.13858798 -0.20095557 -0.20659259 -0.24251704
0.10351367 0.13955942 -0.19734141 -0.1640771 -0.13932762 -0.1256845 -0.25316298 0.21749148
0.16183592 0.14025292 -0.20390327 -0.11596699 0.13162394 0.24309884 0.14613481 0.17397968
