DApp/healthcareDapp/api/models/last_epoch_model.pth (torch, 13953 bytes, 5 tensors)

net.0.weight f4 [64, 8]
0	0xbed76a1c	-0.42073143
1	0xbe8b20b0	-0.27173376
2	0x3c81fb55	0.015866915
3	0x3de7e78a	0.113234594
4	0xbe8a736b	-0.27041182
5	0xbdd295b3	-0.10282459
6	0xbe199c94	-0.15001136
7	0xbdfa9d65	-0.12237052
8	0xbe8b3f48	-0.27196717
9	0xbe3175d4	-0.17330104
10	0x3e52a14c	0.20569342
11	0x3eb78805	0.35845962
12	0x3d12cc63	0.03583945
13	0xbe9af985	-0.30268493
14	0x3efd67aa	0.49493152
15	0xbde53b5a	-0.11192961
16	0x3d69fc24	0.057125226
17	0xbecb78fd	-0.39740744
18	0xbeb53687	-0.35393164
19	0x3caec327	0.02133329
20	0x3e7693d8	0.24079835
21	0xbdc22391	-0.0947944
22	0xbd7b6c19	-0.061382387
23	0xbe0f8564	-0.14015728
24	0xbd6137a8	-0.05498472
25	0xbdec2b9f	-0.115317576
26	0xbb8c82f9	-0.004288074
27	0x3deb9f83	0.11505034
28	0xbe306c5c	-0.17228836
29	0x3e6adf9e	0.22936866
30	0x3eb9c873	0.36285743
31	0x3dda3a1a	0.10655613
32	0x3da75599	0.08170623
33	0xbeb9527a	-0.36195737
34	0xbd94c06a	-0.072632626
35	0xbe2aa28a	-0.16663566
36	0xbed2b835	-0.41156164
37	0xbe179430	-0.14802623
38	0xbd899fe8	-0.06719953
39	0xbe03f8d1	-0.12887885
40	0xbe8ce001	-0.2751465
41	0x3ec10936	0.3770234
42	0x3c87e04a	0.016586442
43	0x3e9e27e1	0.308898
44	0xbed3212f	-0.41236255
45	0x3e7edc63	0.24888758
46	0xbe0ad6bf	-0.13558482
47	0xbe8ae6fc	-0.27129352
48	0xbe604552	-0.21901444
49	0x3e33133b	0.17487805
50	0xbe480e19	-0.19536628
51	0xbd4f9bc6	-0.050685667
52	0x3d659e7f	0.056059357
53	0x3dae2be2	0.08504464
54	0xbc6cb29a	-0.014446879
55	0x3ea8e4c6	0.3298704
56	0xbde82d18	-0.11336726
57	0x3cdf1051	0.02722946
58	0xbe32acb0	-0.17448688
59	0x3df5f9d9	0.12010545
60	0xbeaefbcd	-0.34176484
61	0xbe48921f	-0.19586991
62	0x3eefcb47	0.46834776
63	0xbe28fe47	-0.16503249
64	0xbe9731a3	-0.29530057
65	0x3e67d2ca	0.22639003
66	0x3d9df0bc	0.07711932
67	0xbd95c6bd	-0.07313297
68	0x3e811f31	0.2521911
69	0xbdf10c89	-0.11769969
70	0x3c25ec3d	0.010127124
71	0xbe669384	-0.2251721
72	0x3e23e62d	0.16005774
73	0x3e976fbf	0.29577443
74	0x3ebd6dcb	0.36997828
75	0xbddb24c6	-0.10700373
76	0x3d547bb7	0.051875796
77	0xbe892431	-0.26785424
78	0x3e65cb47	0.22440825
79	0x3df37af5	0.118886866
80	0x3dcdaa1d	0.10042212
81	0xbe767114	-0.24066573
82	0x3eb1e880	0.34747696
83	0xbd8fabc8	-0.070151865
84	0xbeaa326b	-0.3324159
85	0xbce60d34	-0.028082468
86	0x3ef4d999	0.47822264
87	0xbe734ef2	-0.23760584
88	0x3e206fb9	0.15667619
89	0xbea2ce12	-0.31797844
90	0xbeb44a75	-0.35213056
91	0x3e5aef86	0.21380433
92	0xbed42a62	-0.41438586
93	0xbe7f5cae	-0.24937698
94	0x3e442070	0.19152999
95	0xbe065fc7	-0.13122474
96	0x3eb14e24	0.3462993
97	0xbe2404bb	-0.1601743
98	0xbdccc847	-0.09999137
99	0x3ea1debd	0.31615248
100	0x3d3f0b5c	0.046641693
101	0x3e5b6288	0.21424305
102	0x3ceb7869	0.02874394
103	0x3ea78234	0.32716525
104	0x3da2ad84	0.07943252
105	0x3df612fd	0.120153405
106	0x3db88138	0.090090215
107	0x3d28c22c	0.0412008
108	0xbd9aa690	-0.075513005
109	0x3e959658	0.29216266
110	0xbe987c77	-0.2978246
111	0x3e58309f	0.21112297
112	0x3d56d6e6	0.052451037
113	0x3e393fd9	0.18090762
114	0xbe9038cb	-0.2816833
115	0xbeb0acb5	-0.34506765
116	0xbcd173de	-0.025567945
117	0x3ea03fe6	0.3129875
118	0xbdbc82ae	-0.09204613
119	0xbe8e11f4	-0.27748072
120	0x3e6e0159	0.23242702
121	0xbe2c0a19	-0.16800727
122	0x3d25c6bf	0.040472742
123	0xbe0ea262	-0.13929132
124	0x3d93929a	0.072056964
125	0x3eb44847	0.35211393
126	0x3f1413ee	0.5784291
127	0xbcc4f685	-0.02404333
128	0xbd43fb36	-0.047846995
129	0xbe48febf	-0.19628428
130	0xbea5d9c9	-0.3239272
131	0xbe8a58c9	-0.27020863
132	0x3d732145	0.0593579
133	0xbd7edf6c	-0.06222479
134	0x3da19114	0.078889996
135	0xbe222d8b	-0.15837686
136	0xbdf985f4	-0.12183753
137	0x3ec2df18	0.38060832
138	0x3ea652e4	0.32485116
139	0x3d08e8d6	0.033425175
140	0x3b9fcca6	0.004876691
141	0xbda90556	-0.08252971
142	0x3ecf7f7e	0.40526956
143	0xbccd72d1	-0.025079163
144	0x3daa896f	0.08326995
145	0x3e166d6e	0.14690182
146	0x3ea1d0c3	0.31604585
147	0x3d759aca	0.05996207
148	0xbdcd2731	-0.10017241
149	0x3d0feda3	0.035138737
150	0x3e9af5f2	0.30265766
151	0x3d5cc7c6	0.053901456
152	0xbe0020cc	-0.12512511
153	0x3def3af3	0.116811655
154	0xbe45b2e2	-0.1930652
155	0x3dfc7650	0.12327254
156	0xbd4f6dc4	-0.05064179
157	0x3eac59d3	0.3366228
158	0x3ef9f9cd	0.48823395
159	0x3ec967c3	0.39336976
160	0xbdcec9d3	-0.10097089
161	0xbe95d632	-0.2926498
162	0x3e9d6318	0.30739665
163	0x3ead9c53	0.33908328
164	0x3e22329d	0.1583962
165	0xbd8501b7	-0.06494468
166	0x3eaebc91	0.3412824
167	0x3e3e11d4	0.18561488
168	0x3e053a7c	0.13010591
169	0xbd8f9230	-0.07010305
170	0xbecdf4ba	-0.40225774
171	0xbec5e2ab	-0.38649496
172	0x3ade4d0d	0.0016960219
173	0xbe90aba5	-0.28255954
174	0xbdf63b90	-0.120230794
175	0x3e3f06c6	0.18654928
176	0xbd0fb5d4	-0.035085514
177	0x3e2129c7	0.15738593
178	0xbc551b6d	-0.013007027
179	0xbe559428	-0.20857298
180	0xbe9aaf19	-0.30211714
181	0xbed9308d	-0.42419854
182	0x3e6bc8df	0.23025845
183	0x3e2daa5d	0.1695952
184	0xbe482d73	-0.19548588
185	0xbd161047	-0.036636617
186	0x3bfbbe67	0.00768261
187	0x3d91048e	0.07080947
188	0x3dd0475f	0.10169863
189	0xbc9143a0	-0.017732441
190	0x3ed952ba	0.42445928
191	0x3d64c246	0.055849336
192	0x3d80a548	0.06281525
193	0x3e2aea5a	0.1669096
194	0xbe317ff1	-0.17333962
195	0xbdac4ea8	-0.0841344
196	0x3d29d30d	0.04146104
197	0xbdb42d8f	-0.08797752
198	0xbe880130	-0.26563406
199	0xbe873041	-0.26404002
200	0x3ab3cdbf	0.0013717933
201	0xbc530cc1	-0.012881459
202	0xbd94f13c	-0.07272574
203	0xbe9c5e60	-0.30540752
204	0xbdb9487a	-0.09047027
205	0xbe91d24f	-0.28480765
206	0xbeb99492	-0.36246163
207	0x3dc0d956	0.094164535
208	0x3da11177	0.07864659
209	0xbd02cae9	-0.03193179
210	0x3ea97034	0.33093417
211	0x3d5c1caf	0.053738292
212	0xbdcf23e3	-0.10114267
213	0x3e807347	0.2508795
214	0x3dd7da8e	0.10539733
215	0x3e32be29	0.17455353
216	0x3ce01d3c	0.02735769
217	0xbda95ab2	-0.08269252
218	0xbe176e3b	-0.14788143
219	0x3e23149c	0.1592583
220	0x3e405c12	0.18785122
221	0x3c54cdc4	0.0129885115
222	0x3ed92653	0.42412052
223	0x3e8847a0	0.26617146
224	0xbbdebf41	-0.0067977016
225	0xbd9b9ce2	-0.075982824
226	0x3e78658a	0.24257484
227	0xbe56d0ef	-0.2097814
228	0x3c36ce79	0.011157625
229	0x3e68370e	0.22677252
230	0x3e79cbe0	0.24394178
231	0x3eb178da	0.34662515
232	0x3e7632d6	0.2404283
233	0xbe5bbcd9	-0.21458758
234	0x3d6977d6	0.05699905
235	0xbe5081d3	-0.20362024
236	0x3eae56ef	0.340507
237	0x3ebc25bc	0.3674754
238	0x3eaef523	0.341714
239	0x3e63ff92	0.22265461
240	0xbe855bd5	-0.26046625
241	0x3e8026d7	0.25029632
242	0x3daec98e	0.08534537
243	0x3dd1ca2f	0.102436416
244	0x3e01be55	0.12670262
245	0x3e68ef9c	0.22747654
246	0x3df43f0a	0.11926086
247	0x3eea20f2	0.4572826
248	0x3e576bfb	0.21037285
249	0x3d81dc9d	0.06340907
250	0xbe35f973	-0.17770939
251	0x3e4a9477	0.19783197
252	0xbec77dc2	-0.38963133
253	0xbea45c3f	-0.32101628
254	0xbe9af7fb	-0.3026732
255	0x3eae2c67	0.3401825

net.0.bias f4 [64]
0	0x3ce95d88	0.028486982
1	0xbe5564aa	-0.20839182
2	0xbcd447ed	-0.025913203
3	0xbe8f2bba	-0.27963048
4	0xbd1890b3	-0.03724737
5	0x3d7c2a2a	0.06156365
6	0x3dbac2a2	0.091191545
7	0xbe34f4a5	-0.1767145
8	0xbe94879f	-0.2900972
9	0x3e34f007	0.17669688
10	0x3d931755	0.071821846
11	0xbdc972cb	-0.09836348
12	0xbea5b026	-0.32360953
13	0xbdea98e0	-0.1145494
14	0xbb91416e	-0.0044328487
15	0xbe8e8067	-0.27832338
16	0x3ddf2035	0.10894815
17	0x3eb98508	0.36234307
18	0x3e8c79c5	0.27436653
19	0xbe377cb9	-0.17918672
20	0xbe0bf44c	-0.1366741
21	0x3dc20735	0.09474031
22	0xbe3d45f2	-0.18483713
23	0xbe2529c8	-0.1612922
24	0x3e8f46f6	0.27983826
25	0xbe381752	-0.17977646
26	0x3d839d9e	0.064265475
27	0xbe80035b	-0.2500256
28	0xbca76738	-0.02043496
29	0xbc95f56d	-0.018305505
30	0xbce58be5	-0.028020808
31	0xbdb3d645	-0.08781103
32	0xbe3f1433	-0.18660049
33	0xbc30921f	-0.0107770255
34	0x3d5348c6	0.051583074
35	0x3e9237da	0.28558236
36	0x3e0f2768	0.13979876
37	0x3d44e945	0.048074026
38	0xbe306d58	-0.17229211
39	0x3d117ae3	0.035517585
40	0xbe120797	-0.14260708
41	0xbe597e4f	-0.21239589
42	0x3e76c31b	0.24097864
43	0xbe71fde0	-0.23632002
44	0xbe810d1e	-0.2520532
45	0xbcea41c7	-0.028595818
46	0x3e1438d1	0.14474799
47	0xbe297bc7	-0.16551124
48	0xbed9dba9	-0.425504
49	0x3e3973e8	0.18110621
50	0x3db739bb	0.08946558
51	0x3d7b7108	0.061387092
52	0x3e24bb5b	0.16087095
53	0x3e22ad8f	0.1588652
54	0xbe922e7e	-0.28551096
55	0xbdfff5bf	-0.12498044
56	0xbe1cddfb	-0.15319054
57	0xbdf0a1ce	-0.11749612
58	0xbe5ac62d	-0.2136466
59	0xbdda6a7e	-0.10664843
60	0x3def78b0	0.11692941
61	0x3e495fa3	0.19665389
62	0xbe61935f	-0.22028874
63	0xbe1762fd	-0.14783855

net.3.weight f4 [32, 64]
0	0xbc24d2b4	-0.010060001
1	0x3dd2ca40	0.102924824
2	0x3cf04925	0.029331753
3	0x3e80c457	0.25149795
4	0xbdfe6f9e	-0.12423633
5	0x3dc671a1	0.09689642
6	0x3db19fec	0.08673081
7	0x3cbee2e9	0.023301559
8	0x3d1c55f5	0.038167913
9	0xbd2336b1	-0.03984708
10	0x3becfcee	0.0072323
11	0x3d025759	0.031821582
12	0x3ddcb6f7	0.10777085
13	0x3cc5dfe2	0.024154607
14	0x3dd1f602	0.102520004
15	0xbd118f92	-0.03553731
16	0x3cbdbfa6	0.023162674
17	0x3de13ba2	0.10997702
18	0x3dedec7e	0.11617373
19	0x3dbaf0af	0.09127938
20	0x3ca47490	0.020075113
21	0xbcfe3fe9	-0.031036334
22	0x3e240a28	0.160195
23	0x3e3e56e6	0.18587837
24	0x3d5890bc	0.052872404
25	0x3d265437	0.040607657
26	0x3def6edd	0.11691067
27	0x3d41ae43	0.04728533
28	0xbc9b3227	-0.018944813
29	0x3b2e9df8	0.002664445
30	0x3e02f0e3	0.12787203
31	0x3dee9674	0.116497904
32	0x3df68a6a	0.12038119
33	0x3d92808d	0.07153425
34	0x3d5bca1a	0.053659536
35	0x3e1fc227	0.15601407
36	0x3db51fba	0.08843942
37	0x3cda3963	0.026638692
38	0x3d29a0a9	0.041412983
39	0x3e11386a	0.14181677
40	0x3e40d37b	0.18830673
41	0x3dfd2010	0.12359631
42	0x3c84552e	0.016153898
43	0x3dc3442c	0.09534487
44	0xbd60cc63	-0.05488242
45	0xbd211baf	-0.03933304
46	0x3b9fc4e5	0.0048757666
47	0x3b897e23	0.004195945
48	0x3e335e7c	0.17516512
49	0xbdc6cba4	-0.0970681
50	0x3c9a7c16	0.018857997
51	0x3b080381	0.0020754042
52	0x3dcc6b39	0.099813886
53	0x3d93aa72	0.07210244
54	0x3dac841c	0.08423635
55	0x3e3eaedf	0.18621396
56	0xbdec2d38	-0.11532062
57	0xbbb51720	-0.0055264384
58	0x3c4cbb57	0.012495837
59	0x3d6571ce	0.056016736
60	0x3df5a652	0.11994614
61	0x3d591a15	0.05300339
62	0x3da49022	0.08035304
63	0x3c30d367	0.01079259
64	0xbe3460cf	-0.17615055
65	0x3bc5dd9a	0.00603838
66	0x3df19e3b	0.11797758
67	0xbdc825c7	-0.097728305
68	0xbdb1055c	-0.086436
69	0x3d3efe06	0.046628974
70	0x3caa25ac	0.020769916
71	0xbd7c00ae	-0.061524086
72	0x3e44f9d9	0.19235934
73	0x3d5839a3	0.05278934
74	0xbe032f33	-0.12810974
75	0x3d64dc83	0.05587436
76	0x3d57ccf1	0.05268568
77	0x3d8a68c6	0.06758265
78	0x3d858790	0.06519997
79	0xbcaa5cae	-0.020796146
80	0x3d5b947a	0.053608395
81	0x3ca0afe9	0.01961513
82	0xbd5985b2	-0.053106017
83	0xbe0f5ffc	-0.14001459
84	0xbe4dd8aa	-0.20102182
85	0xbd7fc58a	-0.062444247
86	0xbe137576	-0.14400277
87	0xbdaf9956	-0.085741684
88	0x3df79e82	0.1209078
89	0x3d5bf0b9	0.053696368
90	0xbe140f49	-0.14458956
91	0xbd82833d	-0.06372688
92	0x3ca48f61	0.0200879
93	0xbd752901	-0.059853557
94	0x3d02b376	0.03190943
95	0x3cf58992	0.029972825
96	0x3d1f02f1	0.038821165
97	0x3cb2394e	0.02175584
98	0x3d23cdb9	0.039991114
99	0x3ce356a5	0.027751276
100	0x3c0d885c	0.008638468
101	0xbdbef166	-0.09323387
102	0xbca867ed	-0.020557368
103	0xbe0b2caa	-0.13591257
104	0xbcdb4e97	-0.026770873
105	0xbe18cc26	-0.14921626
106	0xbc379c71	-0.011206732
107	0xbd515daf	-0.051114734
108	0xbd806d79	-0.0627088
109	0x3d62ab66	0.05533924
110	0xbd620bcb	-0.055187028
111	0x3d1b2f7d	0.037887085
112	0x3d06b758	0.032889694
113	0x3d141612	0.03615386
114	0xbdcae255	-0.09906451
115	0x3c01b274	0.007916082
116	0x3e06ffc9	0.13183512
117	0xbc03d3c4	-0.008046094
118	0xbc76d245	-0.015064781
119	0x3c9bc2ba	0.019013751
120	0xbc5e4801	-0.013566972
121	0x3d009f59	0.031401966
122	0x3d9a9d44	0.07549527
123	0x3db87998	0.09007567
124	0x3d9a637d	0.07538507
125	0x3dfa90b5	0.12234632
126	0xbdbca191	-0.09210504
127	0xbe0a449d	-0.13502736
128	0xbdd5aa89	-0.104329176
129	0xbe0aa85c	-0.13540787
130	0x3d28ce54	0.041212395
131	0xbd57b22e	-0.05266016
132	0x3bdeaf32	0.0067957873
133	0xbdd18e2f	-0.102321975
134	0x3d875e4a	0.06609781
135	0x3db5c395	0.08875195
136	0x3dd06722	0.10175921
137	0xbdadc80e	-0.08485423
138	0x3d1e3c03	0.03863145
139	0x3d90b0e4	0.07064989
140	0xbc8ecb02	-0.017430786
141	0xbc0775e4	-0.008267853
142	0xbde9b475	-0.114113726
143	0x3d613144	0.054978624
144	0xbd97ba59	-0.0740859
145	0x3de95d57	0.11394756
146	0x3cd6e906	0.026234161
147	0xbd5fdd17	-0.054654207
148	0xbd091402	-0.033466347
149	0x3e2232da	0.15839711
150	0xbd2b57ae	-0.041831665
151	0xbde2873b	-0.110609494
152	0xbd970eb7	-0.073758535
153	0x3e2241e1	0.15845443
154	0xbe292f18	-0.16521871
155	0xbdcff93a	-0.10154958
156	0xbd1b62c1	-0.037935976
157	0x3d9f8e75	0.077908434
158	0xbd13a307	-0.036044147
159	0x3d86b409	0.06577308
160	0x3ddcfbf0	0.10790241
161	0xbd8a8011	-0.06762708
162	0xbe2e4601	-0.17018892
163	0x3d981bdf	0.07427191
164	0x3dd2b2bd	0.10287998
165	0xbdc137ac	-0.09434447
166	0x3bdc0a73	0.006715113
167	0xbce3f938	-0.027828798
168	0xbe067c92	-0.13133457
169	0xbcd9993d	-0.026562328
170	0x3ad8762f	0.0016514714
171	0xbe6a7e2c	-0.22899693
172	0xbd26ea34	-0.040750697
173	0x3e1f65e3	0.1556621
174	0xbdab1c4c	-0.083550066
175	0x3dd31ac1	0.10307837
176	0x3d8b0b7b	0.06789299
177	0x3d162f7f	0.03666639
178	0x3c068d6b	0.008212428
179	0xbda319c5	-0.079638995
180	0x3dcbcd8c	0.09951314
181	0xbd0b4f3c	-0.03401111
182	0xbc509112	-0.0127299
183	0x3c739f24	0.014869485
184	0x3ddb4cad	0.10707984
185	0x3d86cc33	0.06581917
186	0xbd3b0e5a	-0.045667984
187	0xbe10c992	-0.14139393
188	0x3d80b908	0.06285292
189	0xbc8ef3fa	-0.017450321
190	0x3b83812e	0.004013202
191	0xbe87c4f7	-0.2651746
192	0x3dd25f36	0.10272066
193	0xbca35c71	-0.01994154
194	0xbc36f66a	-0.011167148
195	0xbdfcf1a1	-0.123507746
196	0xbe4200d7	-0.18945633
197	0x3d9ea24c	0.077457994
198	0xbd494f08	-0.049147636
199	0xbd208306	-0.039187454
200	0x3df292be	0.11844395
201	0xbdb870d5	-0.09005896
202	0xbdfde1a4	-0.12396553
203	0xbe28a3b8	-0.16468704
204	0xbcd61a00	-0.026135445
205	0xbdbf392c	-0.093370765
206	0x3c529ffa	0.012855524
207	0x3dd2f36d	0.10300336
208	0x3d92a546	0.0716043
209	0xbc64cfcd	-0.013965559
210	0x3d4bb78d	0.049735595
211	0xbda14cbc	-0.07875964
212	0xbdb1234e	-0.08649312
213	0x3d1d1743	0.038352262
214	0xbd0a151a	-0.03371153
215	0xbd776e84	-0.06040813
216	0x3dcacafd	0.09901998
217	0x3db79132	0.08963241
218	0xbdc808f1	-0.097673304
219	0x3c10b1c8	0.008831449
220	0x3d8bf9fd	0.06834791
221	0xbddb01c0	-0.10693693
222	0xbd2a45bc	-0.04157041
223	0xbe1fd43a	-0.15608302
224	0xbd437f9d	-0.047729123
225	0xbdf15857	-0.117844276
226	0xbe643be8	-0.22288477
227	0x3c0b5d9d	0.008506206
228	0x3dc05e7b	0.09393021
229	0xbb9198ea	-0.0044432776
230	0x3c8ec3a5	0.017427275
231	0xbe16f786	-0.1474286
232	0xbda0d306	-0.078527495
233	0xbe052f3a	-0.13006297
234	0x3dcf9e18	0.10137576
235	0x3cb70c4d	0.022344733
236	0xbd2339ba	-0.039849974
237	0xbdb0d47f	-0.086342804
238	0xbd05441b	-0.032535654
239	0xbe1ffbea	-0.15623441
240	0x3db5ce2a	0.08877213
241	0x3e0b62bd	0.13611884
242	0xbd79371e	-0.06084358
243	0xbe27099e	-0.16312262
244	0x3dce6b4f	0.10079061
245	0xbe234425	-0.15943964
246	0x3c2d1c30	0.010565802
247	0xbbcea3c7	-0.006306145
248	0x3dd70b46	0.10500197
249	0xbd392fe6	-0.045211695
250	0x3db46861	0.08808971
251	0xbde7b8b0	-0.11314523
252	0xbcd9aeba	-0.026572574
253	0x3da40e6a	0.08010562
254	0x3d27638b	0.040866416
255	0xbe6dddd0	-0.23229146

net.3.bias f4 [32]
0	0x3cba6cc8	0.022756949
1	0x3e2a44ff	0.16627882
2	0x3e3b2ab8	0.18278015
3	0x3d3b4878	0.04572341
4	0x3da6730b	0.081274115
5	0x3e19863f	0.14992617
6	0x3d80366f	0.062603824
7	0xbda8d0c5	-0.08242945
8	0xbdebff3e	-0.11523293
9	0xbd245c66	-0.04012718
10	0x3e0e5d45	0.13902767
11	0x3e236b6c	0.15958947
12	0x3d98172f	0.07426297
13	0xbdafdd57	-0.08587139
14	0x3cea383b	0.028591266
15	0x3e2f187d	0.17099185
16	0x3cc96fa4	0.024589367
17	0x3b2340ee	0.0024910527
18	0x3d0d8426	0.034549855
19	0x3de6f391	0.11276925
20	0x3d063645	0.0327666
21	0x3d394023	0.04522718
22	0x3df74f6e	0.12075697
23	0xbde60ad0	-0.11232531
24	0xbde2577c	-0.110518426
25	0xbcc558f0	-0.02409026
26	0x3d1349c4	0.03595902
27	0xbd548fdd	-0.05189501
28	0x3d6e4735	0.058173377
29	0x3d53b016	0.0516816
30	0x3d1b8b20	0.037974477
31	0x3d95747e	0.0729761

net.5.weight f4 [1, 32]
0	0x3deddb64	0.11614111
1	0xbe103de6	-0.14086112
2	0xbe50faf7	-0.20408235
3	0xbe6cb7c0	-0.2311697
4	0x3e419685	0.18905075
5	0xbe62b2fa	-0.22138587
6	0x3e3a7941	0.18210317
7	0x3e507d0b	0.203602
8	0x3e10181c	0.14071697
9	0x3d9e290d	0.077226736
10	0xbe8b2108	-0.27173638
11	0xbe66a29b	-0.22522967
12	0x3e1203db	0.14259283
13	0xbe8b9d94	-0.2726866
14	0xbe553308	-0.20820248
15	0xbe882b50	-0.26595545
16	0x3ddbece8	0.10738546
17	0x3e116b9f	0.1420121
18	0xbe54ea32	-0.20792463
19	0xbe39f98b	-0.181616
20	0xbe1d3570	-0.15352416
21	0xbe152a2a	-0.14566866
22	0xbe97282c	-0.29522836
23	0x3e60c44d	0.21949883
24	0x3e35a1f6	0.17737564
25	0x3e1085f7	0.14113604
26	0xbe621c6c	-0.22081155
27	0xbe129183	-0.14313321
28	0x3e0b4a99	0.13602675
29	0x3e7a16d7	0.24422775
30	0x3e1b2e50	0.15154386
31	0x3e3205cd	0.17385025
