models/best_model.pth (torch, 13881 bytes, 5 tensors)

net.0.weight f4 [64, 8]
00000000: 14b7 583e a784 98bd afdf a93e 668f 84be
00000010: e431 223e d60f b93e 23db 5dbe 2346 273e
00000020: 18e8 313e a218 abbd 223a 97be 7602 643d
00000030: d623 873e d1ac 81be 308d 94be 7d8b f5bd
00000040: 334f adbd e5ba 92bd 2330 28be 9b57 a93e
00000050: e9a5 693e 7eac a83e c727 6a3e 8b6e 88bd
00000060: ed44 1cbd 8757 92be 7a84 11be 10d0 c93d
00000070: c198 6e3e 723d debd ae0f e0bd 6774 f5bc
00000080: d1d2 72be 8fb7 863e 2c3a d6be 4923 cfbe
00000090: 65fd c53e eace bebd 9a77 67be 28fa b93c
000000a0: 2285 b5bc b062 9c3c 69ce 323e 1622 603e
000000b0: a2b4 70bd 435c 963e ea93 a03e ef32 ec3e
000000c0: 290c 2e3e d7ee b4be d311 1abd 4899 bf3e
000000d0: bd86 953d 72f6 2cbe e6e3 a0be 33a4 c3be
000000e0: 10a7 8bbe 05b5 6b3e a7da 60be ded1 fa3d
000000f0: 996f 813e 3137 31bd 5e68 983e a04f 6d3e
00000100: b0ba f8bd 33e3 c7be af15 ebbe 2cd5 a4be
00000110: 0188 b63d 17c9 8bbc 8f23 dcbd 368d 10be
00000120: 238a 95be c550 1cbe f4b9 8dbd 48c1 b03b
00000130: 6e4f 2bbe a391 72bc 533c 83be a027 b4be
00000140: eed8 f23c a0c6 7ebe 12c9 9bbe a83f 2abe
00000150: 7903 af3e 447c 86bc 1a0c 77be cf5b 94be
00000160: c0c3 89be 1ece 843d ae29 6ebe 7859 793e
00000170: 19eb 0bbe 676b 233b 96de ed3e d865 b63e
00000180: e983 403e cde0 05be fe12 983e 3795 b83e
00000190: 5d08 25be 5813 d93d cf80 a6bd 4e65 153e
000001a0: b2e5 643e 3a09 a23e dbeb 9f3e 4bdf 5fbe
000001b0: 0363 78be 74bc 0bbd 6a5f 40be 5f35 353e
000001c0: 9dd3 7bbe 8cfc 9b3d e4df 75bd ec95 ee3c
000001d0: 30ec 97be c8e2 aabe 8e0f 893e 10a1 c4be
000001e0: af66 71be ef00 95bd 3f7b 683c 1ee7 973e
000001f0: bbd5 f1bd 52f2 d83e e61f 17be 91a4 f03d
00000200: 7e99 933e 9b4d fa3d 7639 ba3c fe90 883e
00000210: 78ed ca3d ec58 14be f3e9 023d 7b1c 443e
00000220: 85e5 7f3e 3bd4 c43e 2183 35be ca2f 513e
00000230: 69ea aabe 9e00 813e a943 3cbe 1e58 763d
00000240: b026 333e b2b9 80be 4c4a 183e 964b 323d
00000250: 70c9 8f3e ac4a b7bd 9546 81bd a0b4 333e
00000260: 81ca 403e 283b fd3c e123 173e 9413 43be
00000270: d899 95be adaa c23e 6024 73be f369 293e
00000280: d459 f5bd fbbb 8e3e 7971 293e 8f9c 433e
00000290: 3ca8 cdbe 3d9c c7be 3971 983d a5e8 323d
000002a0: b201 433e a8ee bb3e 1d3a 2cbe f698 77be
000002b0: 156d 18be 0266 bdbd 9139 7c3e d5b1 8d3e
000002c0: 84fe 243e e2ce f93d 6597 973d a1d5 15be
000002d0: f2a5 bb3c 5a41 993e 285c 313d ff13 b2be
000002e0: 7109 843d a601 923e bb2f 21be 3cfb 793c
000002f0: 7f5c 013e 359e 82be 10ea 72be 9942 94be
00000300: 9d38 923e 32ea dcbc 7639 fdbd f50b 9ebe
00000310: 44f2 043e 3870 e4bc b0aa 343e 1af3 32be
00000320: 6bce fabb 6a12 02be 9456 673e 9500 cf3d
00000330: 2b9c 6c3e 4245 b5be 171a b33e 315e bc3e
00000340: 2c91 f23d e2dd 153e b1af babe c546 9e3d
00000350: fe08 243c 3632 933e 5246 febd 1053 c93e
00000360: 3011 52be e1d9 3ebd 6602 053e 1769 40be
00000370: f231 d6bd 81b4 b43d 8e20 b23e a6ed e83d
00000380: c604 813c 8965 af3e 851a b4be ddee a6be
00000390: 79a5 153e 59f3 e3bd d1a3 6abe 841d 2ebe
000003a0: d007 933e 9767 62be 8859 7abc 385d 31be
000003b0: cf6f 8e3e 9013 c53e c586 983e cd6b 7a3e
000003c0: e154 983e b109 05be ada2 c73e bbf8 d1bd
000003d0: eceb 7e3e d274 993e a50c a1be 6b59 2bbe
000003e0: 0ad2 303e 4d81 073c 9466 423e b554 a63e
000003f0: e35d bc3d fde3 c83e 8c9c 0c3f 0750 d03e
0.21163589 -0.074471764 0.3317847 -0.25890654 0.15839344 0.36144894 -0.21665625 0.16335349
0.17373693 -0.08354308 -0.2953654 0.05566641 0.26394528 -0.2532716 -0.29013968 -0.11989496
-0.08462372 -0.071645536 -0.16424613 0.3307465 0.22817196 0.329441 0.22866736 -0.066617094
-0.03815167 -0.28582403 -0.14210692 0.09854138 0.23300458 -0.108515635 -0.10940491 -0.029962732
-0.23713233 0.2631192 -0.41841257 -0.40456608 0.38669887 -0.093168095 -0.22604218 0.022702292
-0.02215821 0.019090027 0.17461552 0.21888003 -0.058766015 0.29367265 0.3136285 0.4613261
0.16996826 -0.3533847 -0.037614655 0.37421632 0.0730109 -0.16890886 -0.31423873 -0.38211212
-0.27275896 0.23018272 -0.21958409 0.1224706 0.25280455 -0.043265525 0.29767126 0.23174906
-0.12144983 -0.39040527 -0.4591498 -0.32193887 0.089126594 -0.01706366 -0.1074897 -0.14116368
-0.29206952 -0.15265186 -0.06920233 0.0053941347 -0.16729519 -0.01480523 -0.2563196 -0.3518648
0.029644456 -0.24880457 -0.30426842 -0.16625845 0.34182337 -0.016416676 -0.2412571 -0.28976294
-0.26907158 0.06484626 -0.23258087 0.24350536 -0.13663901 0.0024935843 0.46458882 0.35624576
0.1880032 -0.13074036 0.2970199 0.36051342 -0.16116472 0.10599393 -0.08130037 0.14589426
0.22353247 0.31647664 0.3123463 -0.21862523 -0.2425652 -0.03411527 -0.18786398 0.1769614
-0.24592443 0.07616529 -0.060027972 0.029124223 -0.29672384 -0.33376145 0.2676968 -0.3840413
-0.23574327 -0.07275569 0.01418954 0.29668516 -0.11808344 0.42372376 -0.14758262 0.117501386
0.28828043 0.12221833 0.022732478 0.2667312 0.09908575 -0.14487046 0.031961393 0.1915149
0.24989899 0.3844317 -0.17725803 0.20428386 -0.33381966 0.25195783 -0.18385185 0.06014263
0.17495227 -0.25141674 0.14872092 0.043529116 0.28083372 -0.089497894 -0.063122906 0.17549372
0.18827249 0.030911997 0.1475978 -0.19050437 -0.29218936 0.3802084 -0.23744345 0.16544323
-0.11980024 0.27877793 0.16547193 0.19102691 -0.40167415 -0.38986388 0.074434705 0.0436789
0.19043615 0.36705518 -0.16819043 -0.24179444 -0.14885361 -0.09247972 0.24631335 0.27674738
0.16112715 0.12197663 0.07401923 -0.14632274 0.022906277 0.29932672 0.043300778 -0.3478088
0.06447113 0.28516883 -0.15740864 0.015257653 0.1263294 -0.25511327 -0.237221 -0.2895706
0.28558818 -0.026967142 -0.123644754 -0.30868497 0.12983042 -0.027885541 0.17643237 -0.17475548
-0.0076540015 -0.12702337 0.2259162 0.10107533 0.23106448 -0.35404402 0.34980842 0.36790612
0.118440956 0.14635423 -0.36462167 0.07728342 0.0100119095 0.28749245 -0.12415756 0.39321184
-0.20514369 -0.046594504 0.12989196 -0.18790089 -0.10458745 0.08823491 0.34790462 0.11373453
0.015749346 0.34257153 -0.35176483 -0.32604113 0.14613904 -0.11130399 -0.22914053 -0.17003447
0.28716898 -0.22109829 -0.015280135 -0.17320716 0.27819678 0.38491488 0.2979032 0.24455185
0.29752257 -0.12991978 0.389913 -0.1025252 0.24894685 0.2997194 -0.3145496 -0.16733329
0.17267624 0.008270574 0.18984443 0.324865 0.09197595 0.3923644 0.5492637 0.40686056

net.0.bias f4 [64]
00000000: 7c80 e6bd a9ea 8d3d ece5 bd3b f59e 8c3e
00000010: bcc2 69be 7d91 c23d 95ec 9dbd 8540 b8be
00000020: 97fd 843e 9420 553d 4859 743e fec9 803e
00000030: 04e3 d33d ef52 683e 2d3d bcbe 68ab 763b
00000040: 1aa6 1e3e 6b38 59be 02be 4dbe 5307 b4bd
00000050: de85 84be fc47 82be e951 86be 3cb0 68be
00000060: f49f 55be 84ec 27be 0b31 78be d6e4 973e
00000070: 00b6 7c3e 5494 2bbd ef5f d3bd 8af2 74be
00000080: d44a 583c e6dc 793e 3a11 09be d07b 7ebe
00000090: 7bb5 aaba 2521 a63e e6d9 fcbc be7b 40be
000000a0: c118 7bbe 6bdd b3be 128c af3d e9fd 1a3c
000000b0: 4eb9 583c a1b2 46be 568b d13d 5297 13be
000000c0: e0b0 263e 852a c03e e827 adbd f004 9b3e
000000d0: b7c4 54be 5d8b 65be f0f5 88be b0da 8bbe
000000e0: 3fef 2dbe 2759 6abe 18e8 263d 5382 68be
000000f0: d842 3b3e 3969 803e d02d 873d 5726 31be
-0.11254975 0.069295235 0.005795231 0.27465025 -0.22828192 0.09500406 -0.0771114 -0.35986724
0.25974724 0.052033022 0.23862183 0.25154108 0.10346034 0.22687887 -0.36765423 0.0037638787
0.1549305 -0.21212928 -0.20092013 -0.087904595 -0.25883383 -0.25445545 -0.26234367 -0.22723478
-0.20861799 -0.16398817 -0.24237458 0.29666775 0.24678802 -0.041889504 -0.10321032 -0.23920646
0.013201434 0.24400672 -0.13385478 -0.24851918 -0.0013024056 0.32447162 -0.03086562 -0.18797204
-0.24521162 -0.35129866 0.08571638 0.009459951 0.013227774 -0.19404079 0.10231654 -0.14413193
0.1627841 0.3753244 -0.08454877 0.30277205 -0.20778166 -0.22416444 -0.26750135 -0.27315283
-0.16985796 -0.22885571 0.040748686 -0.22705965 0.18287218 0.2508028 0.06600535 -0.17299782

net.3.weight f4 [32, 64]
00000000: 8b01 053e 3337 033b 8083 a13d 270f 8ebc
00000010: 4394 cfbd 2e1d 3a3e 330d 33be f6ec 3f3d
00000020: 6440 ce3d d3c7 16be ea38 ef3d a902 6bbb
00000030: 7ef7 d4bd 3886 fbbb 58b9 a9bd dc58 a63d
00000040: ffaf 4a3d e7c3 903d 6102 25bd aca9 d93b
00000050: cca6 3abd b67f c13d 40ca 0abe 267b 1cbd
00000060: c6c3 27bd 92fe 81bd cbf1 24bd ecd3 c0bd
00000070: f90f ecbd b3f6 37bd fcbb 4ebd 5e3f 803d
00000080: 520e ae3d e556 843d d4ed e33d 8edb 61bd
00000090: bb54 8e3d e526 a63d 1151 c33d eed6 49bd
000000a0: ea4e 313e 551b 703d cee6 da3d c5bf e53d
000000b0: a946 3ebe 80a8 ea3d 2788 043e 001c 323c
000000c0: c108 913c 0ee0 f7bd 2a57 39bd b5db e33b
000000d0: 7775 07be 0f64 5abd 618a 5f3e 19fb f4bc
000000e0: edcb 0f3d 5bd0 fd3c 4ff7 d33c eb79 5a3d
000000f0: 4026 a53d 0eca 803d ae7c 8c3c 90da 043e
00000100: c232 eb3d 059f d0bd 8b5f 083d 380e b33d
00000110: 5451 043c 9ab8 953d 0d2f 253d 357f ca3d
00000120: 3d6b bd3c c72c 81bd 0b00 00bd e47e 363e
00000130: c2d6 7f3d 4a1a 2f3e e927 553e d78f b6ba
00000140: 005d b83d eeee 323e f40d 0d3e c40c 8cbc
00000150: f83a 1abd 7482 a33d 04a3 82bd 7527 84bc
00000160: e8f2 f2bd 2f81 113e 9979 343d db41 a33d
00000170: f566 84bd c95a 9e3d ab0e ba39 e93f 2a3e
00000180: b1bf fb3c f26e 443d d0f6 533d e902 1d3e
00000190: c5df fb3d 8c7f 93bc 0f79 933d 3b13 1f3d
000001a0: 9b2d 8f3c 8acb 2c3e 36e7 dbbd 9bf4 25bd
000001b0: d4b0 b63d 2b03 cd3c 6ac6 c43d 89a4 153e
000001c0: 4ef6 94bd 26be 70bd 0f91 0a3d 2039 0f3e
000001d0: 5091 83bd 4ecb 203d b9a5 103e e65f 803e
000001e0: 3b4d 4abc 8339 1a3e 0357 da3d 415a 4f3e
000001f0: f0b8 e03c 3bbd 0e3e 4876 dd3c 09c7 353e
00000200: 8d3e acbd 06f4 48be 0048 973c 495f 69bd
00000210: e159 c9bc f21b 4d3e 2b6f ffbd 44c3 90bc
00000220: c783 8e3d 8668 e8bc e5ae 983c f9e2 143e
00000230: b73f b3bd 968e d4bd 63ba c7bd 1d9c ccbb
00000240: 8598 283d 0612 213c 6377 e7bd 9875 b63d
00000250: 8153 d3bc 1596 673d 7070 7e3d 635c c2bb
00000260: 552b 2f3b e206 48bd e575 643c 881a 543d
00000270: e5f8 79bb 80c1 233e d7d7 93bd e49e 853e
00000280: b488 5ebd bd49 bfbd 7b86 413e bfb3 cd3c
00000290: 90fd 07ba 97c7 1dbd ff46 b33d 5fbe 623d
000002a0: a9b6 f63d d566 99bd 2d5f 473d c0b0 7dbd
000002b0: abc4 cb3d 315f 6d3b 76bc 9fbd 82fb 613d
000002c0: c885 57bc d9d9 d9bc 5509 b5bd e760 93bd
000002d0: 08ce 09be f0da 163e d7a6 19bd cf86 8bbc
000002e0: 2eec f9bd baf1 af39 88dd 2b3c f368 8f3c
000002f0: e7cd afbc eff0 cfbc 3156 ebbc b5b1 393e
00000300: 84ec a9bc 4441 8cbc 79ce 54bd 9496 79bd
00000310: 7738 8abd 1b48 333d ba51 fabc c02d 6cbc
00000320: 4cc2 d83d 30f8 c8bd eef4 13be 8ea6 3d3b
00000330: af7d dabd 75b0 f33d 1731 b6bd 82d4 d1bd
00000340: 3147 a73d 1d8e 04be 4761 0fbe 2042 0dbd
00000350: 045a 03be 8d01 f33c 915f a7bd 9c4b ce3d
00000360: e09f 3cbd ce40 1c3d 25f2 c8bd 5a9f be3d
00000370: 3f50 963b 302d a93d e734 003e 9734 0e3c
00000380: 0028 9e3c e10f ddbc d497 39bd f4a2 83ba
00000390: 5cd2 5ebd 296e 91bd caab f33d f55c dcbd
000003a0: d21a c4bd e13c 9d3d 006f 8cbb 3ebf c63c
000003b0: 99be b63d 3426 efbd c273 053e 50a4 4fbd
000003c0: 7fd2 043d 51a0 413d e427 c43d 3779 db3c
000003d0: 4b01 393b 3908 97bc e2ac 443d 810d 60bd
000003e0: fe3b 943d 7f69 a73d 2496 34be 5e65 e53c
000003f0: db6c b3bd c605 01be 07cd 193e ced4 aebd
0.1298887 0.0020021915 0.0788641 -0.01734121 -0.101357006 0.18175194 -0.17485504 0.046856843
0.10070875 -0.14724664 0.11680777 -0.003585974 -0.10398768 -0.007675912 -0.08287305 0.08122417
0.04948425 0.070686154 -0.04028547 0.006642541 -0.045569226 0.09448187 -0.13553715 -0.03820338
-0.04095819 -0.063473836 -0.040269654 -0.09415421 -0.11526484 -0.044913005 -0.050472245 0.06262086
0.08498825 0.06461886 0.111293465 -0.055141024 0.06949755 0.08112887 0.095369466 -0.04927724
0.1731526 0.058619816 0.10688554 0.11218218 -0.18581642 0.1145792 0.12942563 0.0108709335
0.01770437 -0.12103282 -0.04524914 0.0069536814 -0.13228403 -0.05331808 0.21830131 -0.029904889
0.03510659 0.03098314 0.025874762 0.053338926 0.08063936 0.06288539 0.017149296 0.12974
0.11484291 -0.101865806 0.033294242 0.087429464 0.008076031 0.073106006 0.040328074 0.09887544
0.023122424 -0.06307369 -0.03125004 0.17821842 0.06246067 0.17099872 0.20816006 -0.0013928366
0.09002113 0.17473957 0.13774854 -0.01709593 -0.037653893 0.07983866 -0.06378749 -0.016132096
-0.11862737 0.14209436 0.044061277 0.07971545 -0.0646495 0.0773216 0.00035487613 0.16625942
0.030731054 0.04795737 0.05174905 0.15333141 0.1229854 -0.018005155 0.072008245 0.0388367
0.017477801 0.16874519 -0.10737459 -0.040516477 0.08920446 0.025025925 0.09608157 0.14613546
-0.072735414 -0.05877509 0.033829745 0.13986635 -0.064242005 0.039256386 0.14125718 0.25073165
-0.012347515 0.15061001 0.106611274 0.20249273 0.027431935 0.13939373 0.02703394 0.17751707
-0.08410368 -0.19624338 0.01846695 -0.056975637 -0.02457899 0.20030192 -0.124723755 -0.017671235
0.06958728 -0.028370153 0.018638084 0.14539708 -0.08752387 -0.103787586 -0.09752347 -0.006244196
0.04116108 0.009830957 -0.11302068 0.08909148 -0.025796654 0.056539614 0.062118948 -0.0059314235
0.0026728709 -0.04883469 0.013944124 0.051783115 -0.0038142737 0.15991783 -0.072189026 0.26097786
-0.05432959 -0.09340236 0.18898956 0.025110124 -0.0005187625 -0.03852042 0.08753776 0.055357333
0.120465584 -0.07490317 0.04867475 -0.06193614 0.09949621 0.0036220069 -0.07799618 0.055171497
-0.0131544545 -0.026593136 -0.088396706 -0.07196217 -0.13457501 0.14731956 -0.037512626 -0.017032055
-0.12203251 0.000335587 0.010489829 0.017506098 -0.021460487 -0.02538344 -0.028727623 0.18134196
-0.020742662 -0.017120965 -0.05195472 -0.060934618 -0.06749051 0.043769937 -0.030556548 -0.0144152045
0.10583934 -0.09812963 -0.14448902 0.0028938386 -0.106685035 0.11898891 -0.08896082 -0.10245611
0.081678756 -0.12944837 -0.14001952 -0.03448689 -0.12827307 0.029663825 -0.08172525 0.10073015
-0.046050906 0.03814774 -0.098118104 0.09307738 0.004587203 0.08260572 0.1252018 0.008679531
0.019306183 -0.02698511 -0.04531081 -0.0010043071 -0.054399833 -0.071010895 0.118980005 -0.10759918
-0.09575428 0.07677627 -0.004285693 0.024261113 0.08923072 -0.116772085 0.1303244 -0.05069381
0.032427307 0.04727203 0.09577921 0.026791198 0.002822953 -0.018436538 0.048016436 -0.05470038
0.07238005 0.08174419 -0.17635399 0.028002437 -0.08760997 -0.12599859 0.15019618 -0.08536683

net.3.bias f4 [32]
00000000: da2e d6bd 1c43 1f3d fc80 603c 0688 bbbd
00000010: 850b 0d3d ae3a aabd be4c acbc c3f7 a93d
00000020: b511 0ebd 8cb1 503d 44ac 353e e2c9 3e3d
00000030: 8f25 163e d2ec d73d 6199 913d dd36 eb3c
00000040: 8ddc 043e 327b a33d 2fd6 aabc b5ac d3bd
00000050: d101 1f3d 5795 503c 113e 953d 1514 ba3d
00000060: f1d1 0b3e 7157 c83b 2e42 debc b716 843c
00000070: d726 3b3d f666 b53d 0406 213e fa2e adbc
-0.10458155 0.03888236 0.013702627 -0.09156804 0.034434814 -0.083119735 -0.021032687 0.0829921
-0.034684855 0.050950572 0.17741495 0.04657925 0.14662765 0.10543217 0.07109333 0.028712684
0.12974758 0.07982482 -0.020854084 -0.103356756 0.03882009 0.012730918 0.07287229 0.090858616
0.13654305 0.0061139395 -0.027131166 0.016124113 0.045691337 0.08857529 0.15724951 -0.021140564

net.5.weight f4 [1, 32]
00000000: 13c6 803e 6b9a ce3d e15c 8d3e 2b6e 42bd
00000010: 2f14 06be f0b9 19be f783 da3d e901 c23d
00000020: 5488 f9bd 8311 5d3e 5e05 32be dab0 d1bd
00000030: 7181 163e 80cd 293e ddef e13d 0dc0 3cbe
00000040: 5db3 c0bd 18c9 f5bd ea28 343e 286a afbd
00000050: ba4c 4e3e ec1a 423e 7c57 8b3d 21bd a5bd
00000060: c361 35be a5bd fdbc 12b6 043e 53a9 4e3e
00000070: a390 b6bd 3bd0 15be 1c52 883e 5f1b 683e
0.2515112 0.10088047 0.27609923 -0.047468346 -0.13093637 -0.15012336 0.106697015 0.094730206
-0.12184206 0.21588711 -0.1738486 -0.1023881 0.14697815 0.16582298 0.110320784 -0.18432637
-0.09409211 -0.12001246 0.17593732 -0.085651696 0.20146456 0.18955582 0.06803796 -0.08092714
-0.17713074 -0.030974219 0.1296008 0.2018178 -0.08914306 -0.14630215 0.26625144 0.22666691
