models/enhanced_model.pth (torch, 203205 bytes, 25 tensors)

network.0.weight f4 [256, 11]
0	0xbd4c8034	-0.04992695
1	0x3d2c1a40	0.04201722
2	0x3e02c309	0.12769713
3	0x3c9cf4ad	0.01915964
4	0x3cac9429	0.021066742
5	0x3cb36e90	0.021903306
6	0x3daad62b	0.083416305
7	0x3d95ffc3	0.07324173
8	0x3d886af3	0.06661024
9	0x3db216f7	0.086957864
10	0x3da9a7d8	0.08283967
11	0xbe1b3fcc	-0.15161055
12	0x3dd29e54	0.10284105
13	0xbe0e0a40	-0.13871098
14	0x3c8bcbf8	0.017065033
15	0x3e10ca1f	0.14139603
16	0xbdf6f1db	-0.12057849
17	0x3ca9aa9f	0.020711241
18	0x3e1099ad	0.14121123
19	0xbbcd7168	-0.0062696226
20	0xbd7f5a91	-0.06234223
21	0x3cfe4f7b	0.031043759
22	0x3d1305bd	0.035894144
23	0x3e303c62	0.17210534
24	0x3e0cebb2	0.13761786
25	0x3ddd7e91	0.10815156
26	0x3cb8740d	0.022516275
27	0xbdca5dad	-0.098811485
28	0x3d9b69ad	0.075885154
29	0x3e20c133	0.156987
30	0xbdff663b	-0.12470671
31	0xbd9a39fe	-0.075305924
32	0xbe140cbf	-0.14457987
33	0x3cda225d	0.026627714
34	0xbde107f8	-0.10987848
35	0xbdf194b1	-0.11795939
36	0x3e0ef8f9	0.13962163
37	0xbd874917	-0.06605738
38	0xbdb31797	-0.08744734
39	0xbd1fe7b1	-0.039039318
40	0xbbf0d54e	-0.0073496467
41	0x3c762771	0.015024052
42	0x3d36291b	0.044472795
43	0xbd4443a8	-0.047916085
44	0xbdcfec87	-0.10152536
45	0xbe3668b0	-0.17813373
46	0x3dbd3a1f	0.09239601
47	0x3e097173	0.13422184
48	0x3dbcfa33	0.09227409
49	0x3dd0a6ea	0.10188086
50	0xbdce6e1d	-0.10079596
51	0xbd8a7008	-0.067596495
52	0x3df4cdb3	0.119532965
53	0x3cb144e6	0.021639299
54	0xbb728eb7	-0.0037011334
55	0xbdd9291b	-0.10603543
56	0x3b4a6d1f	0.0030887795
57	0x3d8c5c5b	0.06853553
58	0x3dcf80de	0.10132001
59	0x3de40567	0.11133843
60	0x3dddeffe	0.108367905
61	0xbdc55034	-0.09634438
62	0xbdbb9807	-0.09159856
63	0x3d602fae	0.05473297
64	0x3d79c099	0.06097469
65	0x3cb6e97b	0.022328129
66	0x3c8bacc2	0.01705015
67	0x3bcf0d9c	0.006318761
68	0x3c8fa0de	0.017532762
69	0x3d75a3a7	0.059970524
70	0x3cc4960a	0.023997325
71	0xbdeec76b	-0.1165913
72	0xbe3d967a	-0.18514434
73	0xbe2140b7	-0.15747343
74	0xbd839b3b	-0.06426092
75	0xbd9798fc	-0.07402226
76	0x3d88b756	0.066755936
77	0x3d64ae7e	0.05583047
78	0x3dea5ec8	0.11443859
79	0x3de04148	0.109499514
80	0xbd85a6d4	-0.065259606
81	0x3d14cabc	0.036326155
82	0x3d5311fe	0.05153083
83	0x3e41500c	0.18878192
84	0xbdd728fc	-0.10505864
85	0xbd9bd494	-0.076089054
86	0xbd7fef6b	-0.062484186
87	0x3c06ffe8	0.008239724
88	0x3d3eb066	0.046554945
89	0xbe84743b	-0.25869927
90	0xbd181438	-0.037128657
91	0x3ccdd1df	0.025124488
92	0x3cbe24db	0.023210933
93	0x3ccebab4	0.025235511
94	0xbe0117ee	-0.12606785
95	0xbc90888e	-0.01764324
96	0xbe1dfa7a	-0.1542758
97	0x3cc17f50	0.023620278
98	0x3d812be5	0.063072
99	0x3c38c9bc	0.011278566
100	0xbe13be74	-0.14428121
101	0xbd344a4f	-0.04401618
102	0x3d95cb9e	0.073142275
103	0xbc4a9cb8	-0.012366466
104	0x3d7ba15c	0.06143318
105	0xbd006ba5	-0.031352658
106	0xbd3458dc	-0.044030055
107	0xbdc57362	-0.09641148
108	0xbdce6925	-0.100786485
109	0x3a1b92a7	0.00059346337
110	0xbdff5c07	-0.12468725
111	0xbdf6465c	-0.12025139
112	0xbdd486ef	-0.10377299
113	0x3d1d1387	0.0383487
114	0xbcaaf1e5	-0.020867297
115	0x3e47b62b	0.19503085
116	0x3e12d08a	0.14337364
117	0x3d84eee7	0.064908795
118	0xbdedc2b3	-0.116094016
119	0x3d65413e	0.055970423
120	0xbc236fd7	-0.009975395
121	0xbd0f8b49	-0.035044942
122	0xbca5ddb0	-0.02024731
123	0x3e0b48b0	0.13601947
124	0xbe389848	-0.1802684
125	0x3d1185ee	0.035528116
126	0x3af5c784	0.0018751477
127	0x3e1ee5c0	0.1551733
128	0xbdeeddbc	-0.11663386
129	0xbd7b43c6	-0.06134393
130	0xbe197841	-0.1498728
131	0x3d621f7f	0.05520582
132	0xbb9be012	-0.004756936
133	0x3d9baa74	0.07600871
134	0xbd1f5d4e	-0.03890734
135	0xbda5f57e	-0.081034645
136	0xbcb808cb	-0.02246513
137	0xbe02c12a	-0.12768999
138	0x3e3c5bea	0.18394437
139	0x3de357d9	0.1110074
140	0xbd721815	-0.059104998
141	0xbcf0bc8d	-0.029386783
142	0x3db362a8	0.087590516
143	0xbb025fb4	-0.001989347
144	0x3cd7e1b4	0.02635274
145	0x3dcd47e6	0.10023479
146	0xbc7c8f4d	-0.015415025
147	0x3de83f4a	0.113401964
148	0xbdde9131	-0.10867537
149	0xbe047e4e	-0.12938806
150	0x3dfc6789	0.12324435
151	0x3e51e973	0.2049921
152	0x3d100416	0.035160147
153	0xbe28f237	-0.16498648
154	0xbca6e931	-0.020374866
155	0xbcbf4822	-0.023349825
156	0xbdf91275	-0.121617235
157	0xbde23817	-0.110458545
158	0xbc321823	-0.010870012
159	0x3df82374	0.12116137
160	0xbe156790	-0.14590287
161	0xbe26651f	-0.16249512
162	0x3e2c1393	0.16804342
163	0x3e09e26c	0.1346528
164	0xbd91e3cf	-0.07123529
165	0x3cca6259	0.024705099
166	0x3e1c5470	0.15266585
167	0xbc224d02	-0.009906055
168	0xbd4b32c6	-0.04960897
169	0x3c7d775b	0.015470351
170	0xbe026e70	-0.12737441
171	0x3e63d054	0.2224744
172	0xbbe139ae	-0.006873331
173	0xbd4e782f	-0.050407585
174	0xb9a34da6	-0.00031147635
175	0xbd392d06	-0.045208953
176	0x3ccb0189	0.024781005
177	0xbdf1e79f	-0.11811756
178	0x3dab7902	0.0837269
179	0xbd269181	-0.040666107
180	0x3d154347	0.036441114
181	0x3d006ccf	0.031353768
182	0x3dd8f74e	0.105940446
183	0xbe33be1b	-0.17552988
184	0x3d5a551e	0.05330383
185	0xbe853e27	-0.2602398
186	0x3d3f7741	0.04674459
187	0x3e415125	0.1887861
188	0xbd811fa4	-0.06304863
189	0xbe0493d1	-0.12947012
190	0xbe123ce5	-0.14281042
191	0xbe144c1b	-0.14482157
192	0x3e1dd88e	0.1541464
193	0x3d77c02c	0.060486004
194	0x3d6f3bcb	0.058406632
195	0xbc21d478	-0.009877317
196	0xbd040bd7	-0.032237854
197	0x3e0edf24	0.13952309
198	0x3d467b89	0.048457656
199	0x3c981fb6	0.018569808
200	0x3b9af276	0.0047286106
201	0xbd35cebf	-0.04438662
202	0xbe4a6fbc	-0.19769186
203	0xbd08857e	-0.033330433
204	0xbd9a07c0	-0.075210094
205	0xbd941bc0	-0.072318554
206	0xbcc79a02	-0.024365429
207	0xbe34e353	-0.17664842
208	0xbd8e09e2	-0.06935479
209	0xbdea15c4	-0.11429933
210	0xbd89d30b	-0.067297064
211	0x3e0bd92b	0.13657062
212	0xba39c10c	-0.0007085956
213	0x3e02babd	0.12766548
214	0xbde5f441	-0.11228228
215	0x3daaa3c4	0.08332017
216	0xbd94f1f0	-0.072727084
217	0xbdc8cf8f	-0.09805214
218	0xbcfbcfb4	-0.030738689
219	0xbda8c031	-0.082397826
220	0xbd694f3c	-0.05696033
221	0x3cb66018	0.022262618
222	0xbc0c3a31	-0.008558796
223	0xbbf8963a	-0.007586268
224	0x3df03f42	0.117308155
225	0x3c863e07	0.016386999
226	0x3e4f1732	0.20223692
227	0xbe2410b0	-0.16021991
228	0xbe1090ec	-0.14117783
229	0xbdd54e9e	-0.10415386
230	0xbc81396c	-0.015774451
231	0x3df85505	0.12125591
232	0x3d41be20	0.047300458
233	0xbda97a87	-0.08275323
234	0x3db427ce	0.08796655
235	0x3e06ece9	0.13176312
236	0xbddb793c	-0.10716483
237	0x3d3109f2	0.043222375
238	0xbdf9976e	-0.12187086
239	0xbd73a347	-0.059481885
240	0x3d2edbff	0.042690273
241	0xbd7deec6	-0.06199529
242	0xbc771c25	-0.015082394
243	0xbd9362c1	-0.0719657
244	0xbe16a3c5	-0.1471091
245	0xbd8424d7	-0.06452339
246	0xbda6012b	-0.081056915
247	0x3e4098bc	0.18808264
248	0x3d6acfb8	0.057327002
249	0xbd80abe5	-0.06282786
250	0x3d9d4527	0.076792054
251	0x3e078c62	0.13237146
252	0xbdfd3878	-0.12364286
253	0xbcd4ecfd	-0.025991911
254	0xbc92fe8a	-0.01794364
255	0x3b841175	0.0040304014

network.0.bias f4 [256]
0	0xb785f98b	-1.5971038e-05
1	0xbbf40ba0	-0.007447675
2	0x3baab49a	0.0052095177
3	0xba86fba9	-0.0010298389
4	0x3a03219d	0.0005002262
5	0x3adff94a	0.0017087844
6	0x3ac64774	0.0015127496
7	0x3a9fd2a1	0.001219351
8	0x3b51281d	0.0031914779
9	0xbbeb0353	-0.007172027
10	0xbb1cff52	-0.0023955894
11	0x3c3bbc88	0.011458524
12	0xba2e3194	-0.0006644961
13	0xba0e5a94	-0.00054303673
14	0xbb57b535	-0.0032914404
15	0x3b367ce9	0.0027845448
16	0x3982d2d2	0.00024952606
17	0xbb9ea93c	-0.0048419517
18	0xb887a5ed	-6.468208e-05
19	0x3addeedc	0.0016932148
20	0x3b79631d	0.003805346
21	0x3a37fda1	0.00070186896
22	0xba15121b	-0.0005686597
23	0xbb01d7e7	-0.0019812526
24	0xbc4ef083	-0.012630585
25	0xbc1071c1	-0.008816184
26	0x3c058610	0.008149639
27	0xbb00ea28	-0.0019670818
28	0x3b1c2956	0.002382835
29	0x395ca1e8	0.0002104115
30	0x3b2baa1d	0.0026193925
31	0x3b55afac	0.003260593
32	0xbae2e00a	-0.00173092
33	0xbb96c529	-0.00460114
34	0xbb0f8749	-0.0021900705
35	0xbb4924cd	-0.00306921
36	0x38e38545	0.00010849027
37	0x3a9546ab	0.0011388859
38	0xb9f5c83b	-0.00046879225
39	0xbb4cd3b5	-0.0031254117
40	0xbb7c4fc6	-0.0038499697
41	0x3b39c7e0	0.0028347895
42	0x3b3b99c4	0.0028625587
43	0xbbbb7cb4	-0.005721653
44	0xba5c88b3	-0.0008412704
45	0xbb655586	-0.0034993603
46	0x33aa5400	7.9315214e-08
47	0xbb4f3f41	-0.0031623396
48	0x3c39ded5	0.011344631
49	0xbb0e91a4	-0.002175429
50	0xbaa3825e	-0.0012474766
51	0xba89bf11	-0.0010509213
52	0x3c121163	0.008915278
53	0xbb113504	-0.0022156844
54	0x3a1fbc47	0.0006093424
55	0xbb2615f0	-0.0025342666
56	0x3ba2f679	0.0049732295
57	0xbb2dfd5a	-0.0026548714
58	0xbabfa697	-0.0014621791
59	0x3be0f02d	0.0068645687
60	0xbbbbc945	-0.0057307803
61	0x3a41f2ec	0.0007398564
62	0x3b43227c	0.0029775193
63	0x3b0f5715	0.0021871973
64	0xbb445291	-0.002995644
65	0xba9ab69f	-0.0011803693
66	0xbc6192c9	-0.013767906
67	0x3b5fa01c	0.0034122532
68	0x3b01ccc0	0.0019805878
69	0xbaae52e9	-0.0013299856
70	0x3a94e57c	0.0011359896
71	0xbb059fb2	-0.0020389375
72	0x3c1cf817	0.009580634
73	0x3b39b374	0.0028335722
74	0x3b92715d	0.0044690804
75	0x3bc7dfb1	0.006099664
76	0xba89e75b	-0.001052122
77	0xbc077182	-0.008266808
78	0x39b1d25e	0.00033916807
79	0x3c1d58ef	0.009603723
80	0x3b67ccf2	0.003536996
81	0xbb97430e	-0.004616148
82	0xbb9f72fa	-0.004866001
83	0xbb039f5d	-0.0020084002
84	0xba798d5f	-0.0009519662
85	0xbb1cc49e	-0.0023920904
86	0xbb1da473	-0.0024054318
87	0x3ba3e766	0.00500195
88	0x3b31217b	0.0027028013
89	0x3b902b52	0.0043996954
90	0x393c398e	0.00017950518
91	0xbb97b04b	-0.00462917
92	0xba77e5df	-0.00094565557
93	0x3b198f2c	0.0023431284
94	0x3c200353	0.009766418
95	0x3c2c0ead	0.010501546
96	0x3b4b51c4	0.0031024078
97	0x3bdec088	0.006797854
98	0x3b81145a	0.0039391937
99	0xbaa5fd5c	-0.0012664008
100	0x3bb66611	0.0055663665
101	0x3ba39cfc	0.004993079
102	0xbabed6c3	-0.0014559854
103	0x3b9983c9	0.0046848995
104	0x3b545921	0.0032401758
105	0x3b9961f0	0.0046808645
106	0xb9038fb0	-0.00012546661
107	0xbbe0f070	-0.0068646
108	0x3b847d9b	0.0040432937
109	0x3a40c3f6	0.0007353419
110	0x3b95a413	0.0045666783
111	0xbc1d9fa4	-0.009620581
112	0x3a517440	0.000799004
113	0x39a27a67	0.00030990245
114	0x3a55bc68	0.000815338
115	0xbb7f495e	-0.0038953642
116	0xbc2de309	-0.010613211
117	0xbb70bd6f	-0.0036734005
118	0xb9039c15	-0.00012551279
119	0xbb8b9828	-0.004260082
120	0x3bd26986	0.006421271
121	0x3bd6189d	0.006533696
122	0x3938a695	0.00017609664
123	0x3a0b5f5d	0.00053166394
124	0xbbee99b7	-0.007281508
125	0xbb7a2f31	-0.00381751
126	0xbc38cf1d	-0.011279848
127	0x3b2585dd	0.002525679
128	0xbb92402e	-0.004463217
129	0x3aa3850f	0.0012475568
130	0xbaa0efd2	-0.0012278503
131	0xbb951523	-0.004549639
132	0x3b001e9d	0.0019549497
133	0x39cbd279	0.00038875992
134	0x3c1665cd	0.009179545
135	0xbb717614	-0.0036844062
136	0xbb8f8fa8	-0.004381139
137	0xbbecc296	-0.007225345
138	0xbbf3ba58	-0.0074379854
139	0xbbbcb5a4	-0.005758958
140	0xbb2a189b	-0.0025954607
141	0xbc828d63	-0.015936559
142	0x3c118861	0.008882613
143	0xbb974057	-0.004615824
144	0x3c7a2642	0.01526791
145	0x3ad9ebb0	0.0016626026
146	0xbb940496	-0.0045171482
147	0x3b8d8350	0.004318632
148	0x3aaf4062	0.0013370628
149	0xbaf271bf	-0.0018497034
150	0x3b69887f	0.0035634337
151	0xbb4ecff3	-0.0031557053
152	0xb9d9a6fb	-0.00041513875
153	0xba0b137c	-0.00053053326
154	0xbb455724	-0.0030111754
155	0xbbe1b743	-0.0068883016
156	0x3b1c0d29	0.0023811555
157	0x3be70e65	0.0070512765
158	0x3b0e85d9	0.002174726
159	0xbbd1a7f5	-0.006398196
160	0x3b0c4d78	0.002140848
161	0xbc3ade17	-0.011405489
162	0x3b91375c	0.004431648
163	0x39ad7201	0.0003308207
164	0xba8bfef8	-0.0010680845
165	0xbbb948d2	-0.005654433
166	0x3ad3081e	0.0016100442
167	0x399489ad	0.00028331336
168	0xbbf8ed76	-0.007596667
169	0xba4866a6	-0.00076446903
170	0x3cabfe6e	0.020995345
171	0x3bb8a6ac	0.005635103
172	0x3b67d4d5	0.003537466
173	0xbc142614	-0.009042282
174	0xbc007f9f	-0.007842927
175	0x3b8d845d	0.0043187574
176	0x3ad9db46	0.0016621135
177	0x3a535047	0.00080609735
178	0xbbce9c1d	-0.0063052312
179	0xba2e5aa9	-0.00066510827
180	0xba3f04b7	-0.00072867743
181	0xbbdb204b	-0.006687199
182	0xbb23f080	-0.0025015175
183	0xbc10673f	-0.008813678
184	0xbbca55e2	-0.006174789
185	0xbbaddc11	-0.005305775
186	0x3b4b8ab4	0.0031058015
187	0xbb9f39f2	-0.0048592025
188	0xbb24f883	-0.0025172539
189	0x3b679551	0.0035336802
190	0xbc3c256f	-0.011483534
191	0xbb3bf457	-0.0028679573
192	0x3a3d5f9c	0.0007224025
193	0xba42c005	-0.0007429126
194	0xbab6e19d	-0.0013952736
195	0x3aa9d9f9	0.0012958638
196	0xbb33947d	-0.0027401738
197	0xbbd842bd	-0.0065997527
198	0xbb6d6c7a	-0.0036227987
199	0x39be9cc2	0.00036356418
200	0x3b5b6059	0.0033474176
201	0xbb851d92	-0.004062363
202	0x3a95f717	0.0011441436
203	0x3b1a4d49	0.00235446
204	0xba97ffcc	-0.0011596619
205	0xb99820d6	-0.00029016164
206	0xbb6389c6	-0.003471957
207	0xbbd69774	-0.0065488163
208	0xbac83542	-0.0015274661
209	0x3b99c3d8	0.004692536
210	0xbadbf4ca	-0.0016781327
211	0xbb606915	-0.0034242321
212	0x3ad53a35	0.0016267957
213	0x3ab8df3f	0.0014104618
214	0xbc0eb446	-0.008709973
215	0xbba20002	-0.0049438486
216	0x3bc67265	0.0060561174
217	0xba0f6175	-0.00054695393
218	0xbc0c472c	-0.008561891
219	0xbb947306	-0.0045303134
220	0xbb4aca0b	-0.003094318
221	0xbc6f8344	-0.0146186985
222	0x3a37df40	0.0007014163
223	0xba0eda4e	-0.00054494
224	0xbb44f303	-0.0030052073
225	0x3bb55702	0.005534054
226	0xbb2a98b8	-0.002603097
227	0xbad020ef	-0.0015878956
228	0xba1aecd4	-0.0005909924
229	0x3b91edd8	0.004453402
230	0x3a403a4d	0.0007332906
231	0xba0e44c1	-0.0005427115
232	0x39275a58	0.00015960017
233	0x3abb3605	0.0014283067
234	0x3b6aab09	0.0035807511
235	0x3b8b79a2	0.004256443
236	0x3bd686cd	0.006546831
237	0xbadde79a	-0.0016929985
238	0x384a94a8	4.8299e-05
239	0xbb484452	-0.00305583
240	0x3ab967e0	0.0014145337
241	0xbc0041be	-0.007828174
242	0x3b253f54	0.0025214748
243	0x3be14191	0.006874271
244	0x3b827911	0.0039817174
245	0x3bd01d29	0.0063511324
246	0xbb9a3650	-0.0047061816
247	0xbaeab04a	-0.0017905321
248	0xbc2fa015	-0.010719319
249	0xb8e38f2c	-0.00010850871
250	0xb9aeb155	-0.0003331999
251	0x3af1b167	0.0018439711
252	0xbb6f8725	-0.0036549058
253	0xbc020c73	-0.007937538
254	0x3aaa8014	0.0013008141
255	0x39e85da6	0.00044320262

network.1.weight f4 [256]
0	0x3f63f769	0.8904939
1	0x3f70139a	0.9377991
2	0x3f80553f	1.0026015
3	0x3f737568	0.9510102
4	0x3f85e63a	1.0460885
5	0x3f603fdb	0.87597436
6	0x3f82874b	1.0197538
7	0x3f5a1333	0.85185546
8	0x3f86dee4	1.0536771
9	0x3f856e73	1.0424331
10	0x3f66c238	0.90140104
11	0x3f82b7be	1.0212324
12	0x3f7c9030	0.9865751
13	0x3f77be2b	0.9677455
14	0x3f6707af	0.902461
15	0x3f80ba85	1.0056921
16	0x3f7c8a4f	0.9864854
17	0x3f7be35e	0.9839381
18	0x3f82c390	1.0215931
19	0x3f826b90	1.0189075
20	0x3f6e971e	0.93199337
21	0x3f800b0e	1.0003374
22	0x3f685b34	0.90764165
23	0x3f7252ee	0.9465779
24	0x3f7aea73	0.9801399
25	0x3f6ca414	0.92437863
26	0x3f823c70	1.0174694
27	0x3f7c0bc6	0.98455465
28	0x3f816e2c	1.0111747
29	0x3f552886	0.8326496
30	0x3f6ff093	0.9372646
31	0x3f8a2bb7	1.0794591
32	0x3f8a3313	1.0796837
33	0x3f77fe74	0.9687264
34	0x3f7c3adb	0.98527306
35	0x3f648dfd	0.89279157
36	0x3f7074b6	0.93928087
37	0x3f7fe6cf	0.9996156
38	0x3f7be151	0.9839068
39	0x3f676c9b	0.90400094
40	0x3f69dfae	0.91356933
41	0x3f6c2791	0.92247874
42	0x3f7be304	0.98393273
43	0x3f7410de	0.9533824
44	0x3f68ffa7	0.91015095
45	0x3f7145ee	0.9424733
46	0x3f5e416f	0.86818594
47	0x3f7eca20	0.9952717
48	0x3f805ea7	1.0028886
49	0x3f635206	0.8879703
50	0x3f6ea8cd	0.9322632
51	0x3f6c2c61	0.92255217
52	0x3f7b3777	0.9813151
53	0x3f60b5c1	0.87777334
54	0x3f5e2e60	0.8678951
55	0x3f829c5c	1.0203967
56	0x3f68222e	0.90677154
57	0x3f812537	1.0089482
58	0x3f600c94	0.8751919
59	0x3f5cb44e	0.86212623
60	0x3f7c2da4	0.9850714
61	0x3f7e58c4	0.99354196
62	0x3f695f23	0.9116079
63	0x3f5f38fd	0.8719633
64	0x3f66ec06	0.90203893
65	0x3f5e3896	0.86805093
66	0x3f7d1ff7	0.988769
67	0x3f75d45b	0.96027154
68	0x3f5f85c8	0.8731351
69	0x3f56c8a9	0.83899933
70	0x3f7a07de	0.97668254
71	0x3f762c6a	0.9616152
72	0x3f680c00	0.9064331
73	0x3f7ba10d	0.9829262
74	0x3f824256	1.0176494
75	0x3f7dfe06	0.99215734
76	0x3f64ff08	0.89451647
77	0x3f7c5ff2	0.985839
78	0x3f7630f4	0.96168447
79	0x3f880f10	1.0629597
80	0x3f82f263	1.023022
81	0x3f82e873	1.0227188
82	0x3f729f99	0.94774777
83	0x3f807c28	1.003789
84	0x3f58cd7a	0.8468853
85	0x3f59a96e	0.85024154
86	0x3f7dbb9e	0.99114406
87	0x3f6102e9	0.87895066
88	0x3f859059	1.0434676
89	0x3f7f8a1d	0.9982012
90	0x3f581886	0.8441242
91	0x3f7399a7	0.9515633
92	0x3f6ac7a9	0.9171091
93	0x3f77924f	0.96707624
94	0x3f8c509c	1.09621
95	0x3f75a2d0	0.9595156
96	0x3f79643d	0.97418576
97	0x3f6c1350	0.9221697
98	0x3f77826a	0.9668337
99	0x3f875bfe	1.0574949
100	0x3f6cea35	0.9254487
101	0x3f7aba08	0.9794011
102	0x3f659457	0.89679474
103	0x3f6131f3	0.8796684
104	0x3f7c729d	0.98612386
105	0x3f8306ca	1.0236447
106	0x3f725899	0.9466644
107	0x3f71b1d7	0.9441199
108	0x3f6df5bd	0.9295309
109	0x3f7554b0	0.9583235
110	0x3f837c6f	1.0272349
111	0x3f6832bb	0.9070241
112	0x3f651b44	0.8949473
113	0x3f7bd84e	0.9837693
114	0x3f7a915f	0.9787807
115	0x3f82f2dc	1.0230365
116	0x3f88c708	1.068574
117	0x3f786372	0.9702674
118	0x3f67f354	0.90605664
119	0x3f676fdc	0.9040506
120	0x3f6f7c1c	0.9354875
121	0x3f7ed01b	0.99536294
122	0x3f74ba1c	0.9559648
123	0x3f8068a5	1.0031935
124	0x3f89b630	1.0758724
125	0x3f74b6ef	0.95591635
126	0x3f7783d9	0.9668556
127	0x3f65aba0	0.89715004
128	0x3f77486f	0.965949
129	0x3f7ccd37	0.98750633
130	0x3f668fe0	0.90063286
131	0x3f70f0a0	0.94117165
132	0x3f669641	0.9007302
133	0x3f89bd56	1.0760906
134	0x3f8010cc	1.0005126
135	0x3f6986bb	0.9122121
136	0x3f73fafd	0.9530485
137	0x3f766977	0.96254677
138	0x3f88be1f	1.068302
139	0x3f612c23	0.8795797
140	0x3f5f85f3	0.87313765
141	0x3f8670af	1.0503138
142	0x3f882bbd	1.0638348
143	0x3f6e6a81	0.9313126
144	0x3f82ea13	1.0227684
145	0x3f7c9f4e	0.9868058
146	0x3f759c57	0.9594168
147	0x3f650263	0.89456767
148	0x3f6c3d11	0.9228068
149	0x3f793e7e	0.9736098
150	0x3f64afde	0.8933085
151	0x3f6e6d2c	0.93135333
152	0x3f690a91	0.9103175
153	0x3f6fc746	0.9366344
154	0x3f6b2611	0.9185496
155	0x3f78ae9c	0.9714143
156	0x3f809b47	1.0047387
157	0x3f81d2b8	1.0142431
158	0x3f7ff4bb	0.99982804
159	0x3f885ce8	1.0653353
160	0x3f797279	0.97440296
161	0x3f76f582	0.96468365
162	0x3f7a3616	0.9773878
163	0x3f6f0b36	0.9337648
164	0x3f67460e	0.9034127
165	0x3f79c9cd	0.9757355
166	0x3f728c1c	0.9474504
167	0x3f5889a2	0.8458501
168	0x3f711d55	0.9418538
169	0x3f63749b	0.888498
170	0x3f7d46be	0.9893607
171	0x3f859aa2	1.0437815
172	0x3f73e559	0.9527183
173	0x3f83c277	1.0293721
174	0x3f9094c2	1.1295397
175	0x3f728d25	0.9474662
176	0x3f6f9306	0.93583715
177	0x3f61c455	0.88190204
178	0x3f7b4554	0.9815266
179	0x3f7286b8	0.94736814
180	0x3f8222b4	1.016684
181	0x3f800e8a	1.0004437
182	0x3f6f245a	0.93414843
183	0x3f731dff	0.94967645
184	0x3f7b49ea	0.9815966
185	0x3f738d35	0.9513734
186	0x3f80f9b7	1.0076207
187	0x3f78b455	0.97150165
188	0x3f725251	0.94656855
189	0x3f687f28	0.90819025
190	0x3f757b31	0.958911
191	0x3f783b0c	0.969651
192	0x3f66c411	0.90142924
193	0x3f76f7f1	0.9647208
194	0x3f71d0b1	0.9445906
195	0x3f83cb02	1.0296328
196	0x3f72d772	0.94859993
197	0x3f76c6d9	0.9639717
198	0x3f6c0948	0.9220166
199	0x3f7e130a	0.992478
200	0x3f737044	0.9509318
201	0x3f70c15b	0.9404504
202	0x3f84875c	1.0353808
203	0x3f870bb3	1.0550445
204	0x3f720b31	0.94548327
205	0x3f86995b	1.051555
206	0x3f7bbc8e	0.98334587
207	0x3f698b93	0.912286
208	0x3f6acafe	0.9171599
209	0x3f6f1049	0.93384224
210	0x3f6ce953	0.92543525
211	0x3f7fb5d3	0.99886817
212	0x3f72b0e7	0.9480118
213	0x3f7e4325	0.99321204
214	0x3f8547bd	1.0412518
215	0x3f886c06	1.0657966
216	0x3f6dc7cc	0.9288299
217	0x3f619437	0.8811678
218	0x3f759f3b	0.9594609
219	0x3f6bab60	0.9205837
220	0x3f73e035	0.9526399
221	0x3f82e36a	1.0225651
222	0x3f6c5503	0.9231722
223	0x3f5f0d85	0.87130004
224	0x3f88b4e8	1.0680208
225	0x3f6e9a48	0.93204165
226	0x3f769ba6	0.9633125
227	0x3f75477a	0.9581219
228	0x3f68dd82	0.90962994
229	0x3f801192	1.0005362
230	0x3f7009b8	0.9376483
231	0x3f511730	0.81676006
232	0x3f858629	1.0431567
233	0x3f723a76	0.94620454
234	0x3f79d771	0.9759436
235	0x3f74addf	0.95577806
236	0x3f7e15d8	0.9925208
237	0x3f6a9575	0.91634303
238	0x3f85ec15	1.0462672
239	0x3f75f4cf	0.96076673
240	0x3f65702d	0.8962429
241	0x3f828f68	1.0200014
242	0x3f826b3b	1.0188974
243	0x3f64eba1	0.8942204
244	0x3f70b573	0.9402687
245	0x3f728168	0.9472871
246	0x3f721da2	0.94576466
247	0x3f73d36b	0.95244473
248	0x3f7a8a9d	0.9786776
249	0x3f6627b8	0.89904356
250	0x3f717eac	0.9433391
251	0x3f7ecba5	0.99529487
252	0x3f61ba50	0.88174915
253	0x3f890ff1	1.070799
254	0x3f60903d	0.8772009
255	0x3f685554	0.907552

network.1.bias f4 [256]
0	0xbe7881e1	-0.24268295
1	0xbe84e9b3	-0.25959548
2	0xbe96fead	-0.29491177
3	0xbe4a9d73	-0.19786625
4	0x3cdf0fb5	0.02722917
5	0xbe563bad	-0.20921202
6	0xbd1dcb61	-0.038524035
7	0xbea182de	-0.31545156
8	0x3da7c20f	0.081913106
9	0x3e3a7636	0.18209156
10	0xbe2e37a8	-0.17013419
11	0xbe03cf88	-0.12872136
12	0xbe56053e	-0.20900437
13	0xbd6d123d	-0.05787872
14	0xbdc04155	-0.09387461
15	0xbdbac383	-0.09119322
16	0x3b9c12c6	0.00476298
17	0xbdbc76f6	-0.092023775
18	0xbe024dce	-0.12724993
19	0xbdddd852	-0.108322755
20	0xbdf6f289	-0.12057979
21	0xbd71b560	-0.059010863
22	0xbe56e4d5	-0.2098573
23	0xbe879987	-0.2648432
24	0xbbdb520e	-0.0066931313
25	0xbdbffb8e	-0.09374152
26	0xbeb55892	-0.35419136
27	0xbe3e716a	-0.18597952
28	0xbdaabea1	-0.08337141
29	0xbdc28505	-0.09498028
30	0xbe6ffcbe	-0.23436257
31	0x3e36b3b3	0.17841987
32	0xbd613e26	-0.05499091
33	0xbd3d9da2	-0.04629291
34	0xbd829f30	-0.06378019
35	0xbc8c73ac	-0.017145
36	0xbd948548	-0.07251984
37	0xbe25fd42	-0.16209891
38	0xbe3d9aff	-0.18516158
39	0xbe4c1493	-0.19929723
40	0xbdbb269d	-0.09138224
41	0xbe50bce8	-0.20384562
42	0xbde8e41c	-0.113716334
43	0xbe6c7a87	-0.23093615
44	0xbdafc591	-0.08582605
45	0xbd5007a6	-0.050788544
46	0xbe335b08	-0.17515194
47	0xbe38380c	-0.1799013
48	0xbe9199eb	-0.28437743
49	0xbd759269	-0.05995408
50	0xbde6fe7a	-0.11279006
51	0xbd29ce91	-0.041456763
52	0x3c9b8318	0.018983409
53	0xbdd8bbb3	-0.10582676
54	0xbdf527ee	-0.119705066
55	0xbdc4d3b3	-0.09610691
56	0xbd440cbd	-0.04786371
57	0xbe3f84d7	-0.18703018
58	0x3bd75aa7	0.006572086
59	0xbe1a0c39	-0.15043725
60	0xbe418ada	-0.18900624
61	0xbe0fbab2	-0.14036062
62	0xbdfc3aba	-0.12315889
63	0xbd919947	-0.071093135
64	0xbe30a460	-0.17250204
65	0xbdaf1dd5	-0.08550612
66	0xbe597dda	-0.21239415
67	0xbd11b32e	-0.03557127
68	0xbdac6cea	-0.08419211
69	0xbe803bdb	-0.25045666
70	0xbdc4b9c8	-0.096057475
71	0xbe5f2b52	-0.21793869
72	0xbe7d172e	-0.24715874
73	0xbe206ad5	-0.15665753
74	0xbdc8022b	-0.097660385
75	0x3d2bda84	0.04195644
76	0xbe1b46d4	-0.15163738
77	0xbe3b4604	-0.18288428
78	0xbe34611f	-0.17615174
79	0xbe05bea8	-0.13061011
80	0xbcaf8a31	-0.0214282
81	0xbc387171	-0.011257515
82	0xbd8ac278	-0.06775373
83	0xbcb9d9ba	-0.022686828
84	0xbdec22e1	-0.1153009
85	0xbe47b4e6	-0.19502601
86	0xbd6d7730	-0.057974994
87	0xbd82021f	-0.06348061
88	0x3bf44bfb	0.0074553466
89	0xbd7c31ab	-0.061570805
90	0xbe77c683	-0.2419682
91	0xbe1c1001	-0.1524048
92	0xbe05ef68	-0.13079607
93	0xbd65683c	-0.05600761
94	0xbe136475	-0.1439379
95	0xbdb62d48	-0.088953555
96	0xbe4ac4d4	-0.19801646
97	0xbdfdd364	-0.12393835
98	0xbe4a5e85	-0.19762619
99	0xbd37e6a6	-0.044897698
100	0xbcb4f863	-0.022091096
101	0xbd6ad430	-0.057331264
102	0xbe032fa6	-0.12811145
103	0xbe115074	-0.14190847
104	0xbe361529	-0.1778151
105	0xbd9a0094	-0.075196415
106	0xbe4e7691	-0.20162417
107	0xbded8a18	-0.11598605
108	0xbe379c5e	-0.17930743
109	0xbe02e946	-0.12784299
110	0xbd1627ac	-0.036658928
111	0xbe91ae69	-0.28453377
112	0xbe43e3c0	-0.19129848
113	0xbe5ccaa1	-0.21561672
114	0xbe0dc30d	-0.13843937
115	0xbdd66c21	-0.10469843
116	0x3daf173a	0.08549352
117	0xbe329c22	-0.17442372
118	0xbe138ab9	-0.14408387
119	0xbe15ab00	-0.14616013
120	0xbe90bf37	-0.28270885
121	0xbd07dc3d	-0.03316902
122	0xbdf58097	-0.11987417
123	0xbd65fb61	-0.056147937
124	0x3ab29efd	0.0013627704
125	0xbe28c2e3	-0.16480593
126	0xbdcb214f	-0.099184625
127	0xbe31051f	-0.1728711
128	0xbdbb5f1d	-0.09149001
129	0xbe10d1a5	-0.14142473
130	0xbe73a35b	-0.23792784
131	0xbe117d64	-0.14207989
132	0xbe094243	-0.13404183
133	0xbd77cfbd	-0.06050085
134	0xbd4acb2f	-0.049510177
135	0xbdd4175f	-0.1035602
136	0xbe4e88e5	-0.20169409
137	0xbdf4bab0	-0.1194967
138	0x3e2fe8d0	0.17178655
139	0xbe4661d6	-0.19373259
140	0xbe18c8d7	-0.14920364
141	0xbe24ab54	-0.16080981
142	0xbce1ccbe	-0.027563449
143	0xbe010aed	-0.12601824
144	0xbe2804ec	-0.16408128
145	0xbe45ade2	-0.19304612
146	0xbdc2c526	-0.09510259
147	0xbe791a84	-0.24326521
148	0xbe2f148c	-0.17097682
149	0xbcefac1e	-0.029256877
150	0xbda4a551	-0.08039344
151	0xbd9622ec	-0.073308796
152	0xbe405bf4	-0.18785077
153	0xbddd3774	-0.108015925
154	0xbcf475b9	-0.02984129
155	0xbe1c3c65	-0.15257414
156	0xbdcd5fee	-0.10028063
157	0xbcfe7fc9	-0.031066792
158	0x3c27dcb9	0.0102454955
159	0xbddc5108	-0.10757643
160	0x3d81edaa	0.06344159
161	0xbdcd3cef	-0.10021388
162	0xbd915429	-0.070961304
163	0xbdd3fc94	-0.1035091
164	0x3c4b4dd8	0.012408696
165	0xbdeda731	-0.11604155
166	0xbd2dfdae	-0.042478256
167	0xbdfe2e2e	-0.12411152
168	0xbd654837	-0.055977073
169	0xbcaba159	-0.02095096
170	0xbe85d319	-0.26137617
171	0xbdaf0587	-0.08545976
172	0xbdcf882d	-0.10133395
173	0xbcb98c3b	-0.022649875
174	0xbcd7d413	-0.026346242
175	0xbe2ac2dd	-0.16675897
176	0xbd844a9f	-0.06459545
177	0xbd825202	-0.06363298
178	0xbdab2353	-0.08356347
179	0xbe0db9ba	-0.1384038
180	0x3c62fcc7	0.013854212
181	0xbd9f2235	-0.07770196
182	0xbe570276	-0.20997033
183	0xbe2e22f2	-0.17005518
184	0xbd8255b6	-0.06364004
185	0xbd620c1f	-0.05518734
186	0xbe720d6b	-0.23637931
187	0xbe2a2a2b	-0.16617648
188	0xbe5c8d01	-0.21538164
189	0xbdabd4b3	-0.083901785
190	0xbdb9f3a8	-0.09079677
191	0xbe00fb97	-0.12595974
192	0xbe2be639	-0.16787042
193	0xbd9d24f0	-0.07673061
194	0xbe31d4db	-0.17366354
195	0xbe6dabad	-0.2321002
196	0xbe208793	-0.15676717
197	0xbe5f896e	-0.21829769
198	0xbdd8991b	-0.105760776
199	0x3b0277e2	0.0019907882
200	0xbe705e9b	-0.23473589
201	0xbe1eca4f	-0.15506862
202	0xbce7b8fa	-0.028286446
203	0xbd8e3069	-0.06942827
204	0x3b60d6aa	0.0034307637
205	0x3d578fec	0.05262749
206	0xbe3795e9	-0.1792828
207	0xbdc29b47	-0.09502273
208	0xbe791bf1	-0.24327065
209	0xbe46a5c7	-0.19399177
210	0xbcbdc59e	-0.02316552
211	0xbc986ffa	-0.018608082
212	0xbe0a6638	-0.13515556
213	0xbda8b9da	-0.08238573
214	0xbe3c726b	-0.18403022
215	0xbc24aca5	-0.010050927
216	0xbe494d8a	-0.19658485
217	0xbe7606e0	-0.2402606
218	0x3d8c3578	0.06846136
219	0xbe3bc210	-0.18335748
220	0xbce4243b	-0.027849307
221	0xbe2d64bd	-0.1693296
222	0xbd26a5cd	-0.040685464
223	0xbe20978a	-0.15682808
224	0xbdf2aa84	-0.118489295
225	0xbe363e54	-0.17797214
226	0xbe56d5dd	-0.2098002
227	0xbda6eb85	-0.081503905
228	0xbdaee204	-0.08539203
229	0xbe3994be	-0.18123147
230	0xbd96606b	-0.07342609
231	0xbe06099c	-0.13089603
232	0x3d9d31c6	0.07675509
233	0xbe0967fa	-0.1341857
234	0xbd749dc5	-0.059720773
235	0xbdb699b0	-0.08916032
236	0xbd609b0a	-0.054835357
237	0xbe316ac1	-0.1732588
238	0xbe2f6bb6	-0.17130932
239	0xbe37b320	-0.17939425
240	0xbdb6812d	-0.08911357
241	0xbe41d0b9	-0.18927278
242	0xbe2e2f1a	-0.17010155
243	0xbdf494c6	-0.11942439
244	0xbd85b403	-0.06528475
245	0xbe4aecad	-0.19816847
246	0xbdf00168	-0.11719018
247	0xbe1cda7c	-0.1531772
248	0x3d2a7861	0.04161871
249	0xbd80826a	-0.062748745
250	0xbde30e71	-0.11086739
251	0xbe77f4d8	-0.24214494
252	0xbdc7a051	-0.09747375
253	0xbdfb5a01	-0.12273026
254	0xbe5ea3a1	-0.21742107
255	0xbddb686f	-0.107132785

network.1.running_mean f4 [256]
0	0xbbbb54bf	-0.0057168896
1	0xbb70d63b	-0.0036748785
2	0x3c086429	0.008324661
3	0xbbde25d2	-0.006779411
4	0xbc620870	-0.013795957
5	0xbc2a9fb9	-0.010414057
6	0xbbf3a42f	-0.0074353437
7	0x3c8d658a	0.017260332
8	0xbc8b96d7	-0.0170397
9	0xbc02f949	-0.0079940045
10	0xbabc2ad2	-0.0014356023
11	0x3ce9d5c7	0.02854432
12	0x3c28068a	0.010255465
13	0xbc02d4a9	-0.007985272
14	0xbb829eee	-0.003986231
15	0x3ca0a938	0.01961194
16	0x3cab4492	0.02090672
17	0x3baa85ee	0.005203954
18	0x3c65534d	0.013996911
19	0x39e55d20	0.00043747667
20	0x3ca71b87	0.020398868
21	0x3a9a888c	0.0011789962
22	0x3bf05ef8	0.00733554
23	0xbc885ac4	-0.016644843
24	0xbc79e061	-0.01525125
25	0xbba59238	-0.005052831
26	0x3c481184	0.012211207
27	0xbc096739	-0.008386427
28	0x3c9cc280	0.019135714
29	0x3c9c09f3	0.019047713
30	0xbb45d056	-0.0030183992
31	0xbcc0aea0	-0.023520768
32	0xbbef4efa	-0.007303116
33	0xbc1ef818	-0.009702705
34	0x3b0f754f	0.002188999
35	0x3a9bcb70	0.0011886191
36	0xbbbf1a95	-0.0058320262
37	0x3b3d4a1e	0.0028883289
38	0xbc0018bc	-0.007818397
39	0x3c32c7f4	0.01091193
40	0x3c1ee844	0.009698931
41	0x3ca90ed6	0.020636957
42	0x3ca036a9	0.019557314
43	0xbb54e513	-0.0032485172
44	0xbca18652	-0.01971737
45	0xbcb27c0b	-0.021787664
46	0x3b8695ff	0.0041072364
47	0xbc8dd016	-0.017311137
48	0x3c5f3000	0.013622284
49	0x3c1052c3	0.008808794
50	0xbc55e91a	-0.013056064
51	0x3c507379	0.012722843
52	0x3c94c01b	0.01815801
53	0xbc84e898	-0.01622419
54	0xbc70c8ea	-0.014696339
55	0xbca38dae	-0.01996502
56	0x3cb2efec	0.02184292
57	0xbbadd6b5	-0.005305136
58	0x3a096e5e	0.0005242581
59	0x3bf91261	0.007601068
60	0xbc20efa1	-0.009822757
61	0x3a915320	0.0011087395
62	0xbb553681	-0.0032533708
63	0x3a2aa885	0.0006510097
64	0x3abfd95a	0.0014636919
65	0xbb8de3c8	-0.004330132
66	0xbc281054	-0.010257799
67	0xbb7ab470	-0.0038254522
68	0x3c56f35b	0.013119544
69	0xba9f9d8b	-0.0012177689
70	0x3bddca4a	0.0067684995
71	0x3c9c0d53	0.019049322
72	0x3ae77a04	0.0017660265
73	0x3c9b3291	0.01894501
74	0x3caa03fe	0.020753857
75	0x3c569df6	0.013099184
76	0xb9761920	-0.00023469748
77	0xbc1a5583	-0.009419802
78	0x3c289d04	0.010291342
79	0xbbaf341f	-0.0053467895
80	0xbbd9170c	-0.006625062
81	0xbc3c0d60	-0.011477798
82	0xbaeb65a4	-0.0017959368
83	0x3c9d6572	0.019213412
84	0x3c81dcda	0.01585238
85	0xba81c643	-0.0009901006
86	0xbc04fd0e	-0.008116974
87	0xbba1b3e2	-0.004934774
88	0x3c57174c	0.013128113
89	0xbc092122	-0.008369716
90	0x3c368246	0.011139458
91	0xbc20e5b7	-0.009820393
92	0xba55b9b4	-0.0008152977
93	0xbcb62262	-0.022233192
94	0x3c59cd78	0.0132936165
95	0x3cad65d2	0.021166716
96	0xbbba9cfd	-0.005694984
97	0x3c50e584	0.012750033
98	0x3c343487	0.010998852
99	0xbbe97ece	-0.007125712
100	0xbba3cc72	-0.004998737
101	0xbc1b6dad	-0.009486598
102	0xbb57f0ec	-0.0032949997
103	0x3c8fd967	0.01755972
104	0x3c057e95	0.008147855
105	0x3bc46fee	0.0059947884
106	0x3b105730	0.0022024624
107	0xbc96e87d	-0.018421406
108	0x3c1ae0c8	0.009453006
109	0x3b3f7d85	0.0029219103
110	0xbcb4d71e	-0.022075232
111	0x3bab14d7	0.00522099
112	0xbbc72df6	-0.006078477
113	0xb9f9e1cb	-0.0004766121
114	0xbbaa82e0	-0.00520359
115	0xbc98f0ce	-0.018669512
116	0xbc7537ae	-0.014966888
117	0xbcb5432d	-0.022126758
118	0x3c79bfdb	0.015243496
119	0x3b09050a	0.0020907545
120	0xbc25af68	-0.010112621
121	0x3ba285b6	0.0049597872
122	0x3c9dc5f5	0.019259432
123	0x3af638bc	0.0018785219
124	0x3b8510a1	0.00406082
125	0xbadeb78a	-0.0016991955
126	0xbc2af819	-0.010435128
127	0x3bc07aa1	0.0058739935
128	0xbc17bd04	-0.009261373
129	0x3b998bfd	0.0046858774
130	0xbb418594	-0.0029529082
131	0xbc398e08	-0.011325367
132	0x3c1fa842	0.009744706
133	0xbbe12b1f	-0.0068715955
134	0x3c05e824	0.008173022
135	0xbc84d9f3	-0.016217208
136	0xbc1f6da0	-0.0097307265
137	0xbc1fa2f8	-0.009743445
138	0xbd15d090	-0.036575854
139	0xbc2f3405	-0.010693555
140	0xbb5644e9	-0.0032694882
141	0xbcc62c24	-0.02419097
142	0x3c28e088	0.010307439
143	0xbc031e30	-0.008002803
144	0x3c3bc8df	0.011461466
145	0x3a98c0da	0.0011654154
146	0x3c1b90a0	0.0094949305
147	0x3be93bd6	0.0071177287
148	0x3c2571d4	0.0100979395
149	0x3c6b26a3	0.014352473
150	0x3c0af73a	0.008481795
151	0x3be29b8e	0.006915516
152	0x3bc2c012	0.0059433067
153	0xbc45f724	-0.012082849
154	0x3b8a3e3e	0.0042188456
155	0xbb8b59b8	-0.0042526387
156	0x3ca07be8	0.019590333
157	0x3c22f1ac	0.009945314
158	0x3c59dc98	0.013297223
159	0xbb002381	-0.0019552412
160	0xbc57f53d	-0.013181028
161	0xbc841e79	-0.016127812
162	0x3c2a4e80	0.010394692
163	0xbca45a92	-0.020062719
164	0xbcbacc50	-0.022802502
165	0x3c0cfc3a	0.008605057
166	0x3c1efa66	0.009703254
167	0x3b0af01a	0.002120024
168	0xbbec55a6	-0.0072123585
169	0xbc87adb0	-0.016562313
170	0x3cb6cfc2	0.022315864
171	0x3d1134e6	0.03545084
172	0x3b573148	0.003283577
173	0xbc3b50d2	-0.011432843
174	0x3addc52b	0.0016919723
175	0x3c558b27	0.013033665
176	0x3cb7ce08	0.02243711
177	0xbb5f0323	-0.003402897
178	0xbcda32a7	-0.026635481
179	0x3c084a75	0.008318533
180	0xbbcf30a3	-0.0063229366
181	0xbca98947	-0.020695342
182	0x3b09f416	0.0021050028
183	0xbcfe87b4	-0.031070568
184	0xbc785b92	-0.015158551
185	0x3c775a27	0.015097178
186	0x3b9bb48b	0.004751747
187	0xbc9d95e8	-0.01923652
188	0xbc8115c1	-0.015757443
189	0xb9a44d80	-0.0003133826
190	0xba8317fc	-0.0010001655
191	0x3c6373d2	0.013882594
192	0x3c5202cc	0.01281805
193	0x3bb9339d	0.0056519047
194	0xbc062454	-0.008187372
195	0xb9bcc0fe	-0.00036001945
196	0xbc387f16	-0.011260768
197	0xbc150554	-0.009095509
198	0xbb134ff8	-0.0022478085
199	0x3c33cc47	0.0109739965
200	0x3b4a3d48	0.003085928
201	0x3ca10c3b	0.019659152
202	0xbaa5e7ea	-0.0012657617
203	0xbc24eb8c	-0.010065924
204	0x3ca475f4	0.020075776
205	0x3bffb895	0.0078039863
206	0xbcae3b84	-0.021268614
207	0xbbca2b15	-0.0061696866
208	0x3c918b20	0.017766535
209	0xb9c6a338	-0.0003788711
210	0xbba30c8f	-0.0049758623
211	0x3c3deb7f	0.011591791
212	0x3bbea7d4	0.0058183465
213	0x3c9045da	0.017611433
214	0x3b140e8c	0.0022591678
215	0x3c726204	0.014793877
216	0x3a947710	0.0011326987
217	0x3811b980	3.4743454e-05
218	0x3a7eb428	0.00097161764
219	0x3bb0cdca	0.0053956257
220	0xbc4822f0	-0.012215361
221	0xbc9aeb72	-0.018911097
222	0x3cbf6f14	0.023368396
223	0xbb169f47	-0.002298312
224	0xbc6af32e	-0.014340205
225	0x3c63693e	0.013880072
226	0xbb4f0a8a	-0.0031591975
227	0xbbd5a4ce	-0.0065198904
228	0x3ab1d388	0.001356707
229	0x3c762492	0.0150233675
230	0xbc93a4d6	-0.018022936
231	0x3b2e365d	0.0026582696
232	0xbcbb2004	-0.022842415
233	0xbb168672	-0.002296832
234	0x3c89d504	0.016825207
235	0x3c8b96ca	0.017039675
236	0x3c01192f	0.007879539
237	0xbc86777a	-0.016414393
238	0xbba0adca	-0.00490353
239	0x3c80b4d7	0.015711231
240	0x3ad0daca	0.0015934345
241	0xbc0d37f3	-0.008619296
242	0x3a0ea25e	0.0005441065
243	0x3c85578d	0.016277099
244	0xbc3bcf62	-0.011463018
245	0xb90dbc98	-0.00013517065
246	0xbc6fdff8	-0.014640801
247	0xbc36ee00	-0.011165142
248	0xbcd47c06	-0.025938045
249	0x3c1d890a	0.009615192
250	0xbc6bd3e8	-0.014393784
251	0x3ca69b06	0.020337593
252	0x3c18e23a	0.00933128
253	0xbb4c7d8a	-0.0031202757
254	0x3b4473c0	0.002997622
255	0x3cf31a1f	0.029675541

network.1.running_var f4 [256]
0	0x3dc3b446	0.09555869
1	0x3de590a7	0.11209231
2	0x3d58783c	0.05284904
3	0x3d8652cb	0.0655876
4	0x3db48f7d	0.08816431
5	0x3d879372	0.0661992
6	0x3e288204	0.16455847
7	0x3db294a9	0.08719761
8	0x3e5856c9	0.21126856
9	0x3dbd90fb	0.092561685
10	0x3dcc1670	0.09965217
11	0x3e17984e	0.14804193
12	0x3d9068c4	0.070512325
13	0x3de54458	0.11194676
14	0x3df4f92b	0.119615875
15	0x3daa9832	0.0832981
16	0x3e5cbc50	0.2155621
17	0x3dcd9ae6	0.1003931
18	0x3ddeb536	0.10874407
19	0x3dcfe122	0.101503626
20	0x3de69d01	0.11260415
21	0x3d99d097	0.075104885
22	0x3e25381d	0.16134687
23	0x3d9af19f	0.07565617
24	0x3db2d197	0.08731382
25	0x3d815730	0.06315458
26	0x3dc670ee	0.096895084
27	0x3e6b10c5	0.22955616
28	0x3dcb46f5	0.09925643
29	0x3e172a9e	0.14762351
30	0x3e10e9c1	0.1415167
31	0x3e28a557	0.16469322
32	0x3e52c091	0.20581271
33	0x3d93e048	0.07220513
34	0x3dab8196	0.08374326
35	0x3d78fc88	0.060787708
36	0x3e530402	0.20606998
37	0x3e7307f7	0.23733507
38	0x3dd28321	0.10278917
39	0x3df659c2	0.12028839
40	0x3d51f6fd	0.051260937
41	0x3e142804	0.1446839
42	0x3dce59a3	0.100756906
43	0x3dec4f58	0.11538571
44	0x3ded83e3	0.11597421
45	0x3e61a55e	0.22035739
46	0x3e49f78c	0.19723338
47	0x3d844c5a	0.064598754
48	0x3d0f5dfd	0.035001744
49	0x3db33fd5	0.08752409
50	0x3ddc6447	0.10761314
51	0x3e17526c	0.14777535
52	0x3dfb4cfa	0.122705415
53	0x3db3c74c	0.08778247
54	0x3e10658e	0.1410124
55	0x3db35425	0.08756284
56	0x3e4767d4	0.19473201
57	0x3eb1b398	0.34707332
58	0x3dc57a02	0.09642412
59	0x3d95597e	0.0729246
60	0x3e35ed8e	0.17766401
61	0x3e0e589a	0.13900986
62	0x3dc744eb	0.09729942
63	0x3df589ea	0.11989196
64	0x3dd0476a	0.10169871
65	0x3d6d21ff	0.05789375
66	0x3d981be5	0.074271955
67	0x3e9990c4	0.2999326
68	0x3dfaf87c	0.12254426
69	0x3df6d2ce	0.120519266
70	0x3d1b6fa1	0.037948254
71	0x3e0ab38c	0.13545054
72	0x3d8c11e2	0.068393484
73	0x3dc4c2be	0.096074566
74	0x3d7ba56c	0.061437055
75	0x3d9eba5d	0.0775039
76	0x3d95cd31	0.07314528
77	0x3d51c203	0.051210415
78	0x3e0fad8c	0.14031047
79	0x3dcac59d	0.09900973
80	0x3d942975	0.0723447
81	0x3de3aa2c	0.11116442
82	0x3d937620	0.07200265
83	0x3dfdb3a8	0.12387782
84	0x3e1408b5	0.14456446
85	0x3daa9261	0.08328701
86	0x3e889ef9	0.26683787
87	0x3df95ba3	0.121756814
88	0x3dfacb84	0.12245849
89	0x3df9b195	0.12192074
90	0x3d543631	0.051809493
91	0x3e625498	0.22102582
92	0x3da8cf52	0.08242668
93	0x3e7059a0	0.23471689
94	0x3da9e134	0.08294907
95	0x3dd52612	0.10407652
96	0x3d91e97a	0.0712461
97	0x3d84e5ee	0.06489168
98	0x3d76cfbb	0.0602567
99	0x3d4e6c35	0.050396163
100	0x3dcea83f	0.10090684
101	0x3d930d8b	0.071803175
102	0x3e28b2e3	0.1647449
103	0x3dd436d7	0.10362022
104	0x3d1f6cb5	0.03892203
105	0x3e604348	0.21900666
106	0x3da59d2d	0.080866195
107	0x3e49d69d	0.19710775
108	0x3de37bcd	0.111075975
109	0x3e0efb74	0.13963109
110	0x3e0210cb	0.12701719
111	0x3db7acec	0.08968529
112	0x3d92d01a	0.071685985
113	0x3e1f31e4	0.15546376
114	0x3d852191	0.06500543
115	0x3d3eb792	0.046561785
116	0x3e4840c8	0.19555962
117	0x3e61be18	0.22045171
118	0x3e0a6643	0.13515572
119	0x3e000e0b	0.12505357
120	0x3d885d5d	0.06658433
121	0x3e0c92a8	0.1372782
122	0x3df7851d	0.12085936
123	0x3e288871	0.16458298
124	0x3ddbffa8	0.10742122
125	0x3d6436fe	0.055716507
126	0x3db55629	0.08854324
127	0x3e02ebb7	0.1278523
128	0x3dc687a9	0.09693844
129	0x3e0043b6	0.1252583
130	0x3e071012	0.13189724
131	0x3e597e1d	0.21239515
132	0x3e35b3cc	0.17744368
133	0x3cffa6e5	0.031207511
134	0x3d48ee5e	0.04905545
135	0x3db9349c	0.090432376
136	0x3e246846	0.16055402
137	0x3d0f89d6	0.03504356
138	0x3e8284a4	0.25491822
139	0x3da3e4ef	0.0800265
140	0x3d9d304c	0.076752275
141	0x3d0c3a2d	0.03423517
142	0x3d866f4a	0.065641955
143	0x3e43a149	0.19104494
144	0x3de64890	0.11244309
145	0x3d8a956b	0.067667805
146	0x3e24246c	0.16029519
147	0x3d9d8a82	0.07692434
148	0x3d54c51f	0.0519458
149	0x3ddca305	0.10773281
150	0x3e032de8	0.1281048
151	0x3d713d0b	0.058896106
152	0x3d99f56f	0.07517516
153	0x3e15e1be	0.14636895
154	0x3dec710b	0.11544999
155	0x3e003aa7	0.12522374
156	0x3e2bde70	0.16784072
157	0x3dfdcac1	0.12392188
158	0x3deb37db	0.11485263
159	0x3d76ff7d	0.060302246
160	0x3e195624	0.14974266
161	0x3dc703b5	0.09717504
162	0x3dd7ae81	0.10531331
163	0x3ddf7ca9	0.10912449
164	0x3e838064	0.25683892
165	0x3df549ee	0.119769916
166	0x3d9da5ea	0.07697661
167	0x3dc84515	0.09778801
168	0x3df4bc1a	0.1194994
169	0x3e691194	0.22760612
170	0x3d0e0495	0.03467234
171	0x3e3535f3	0.17696361
172	0x3e1a66d4	0.15078288
173	0x3e9230a6	0.2855274
174	0x3d909acc	0.07060775
175	0x3d9e6ef7	0.077360086
176	0x3ded05b9	0.11573357
177	0x3e1050aa	0.14093271
178	0x3e1af10d	0.15131016
179	0x3dd12ed4	0.1021401
180	0x3d927e4a	0.07152994
181	0x3e6af739	0.2294587
182	0x3d8f0f03	0.06985285
183	0x3dd4a435	0.103828825
184	0x3ddcee3c	0.10787627
185	0x3dbfb6b2	0.09361018
186	0x3df12f24	0.117765695
187	0x3e0aa9aa	0.13541284
188	0x3d3daec0	0.046309233
189	0x3e3af6a5	0.1825815
190	0x3d7694be	0.060200445
191	0x3d8ddb11	0.06926549
192	0x3dc89865	0.09794692
193	0x3e03f4f3	0.1288641
194	0x3e2e3cf3	0.17015438
195	0x3dc76e47	0.097378306
196	0x3dd2aec2	0.10287239
197	0x3e37bfce	0.17944261
198	0x3dc1d9d4	0.094653755
199	0x3dbde72e	0.0927261
200	0x3d931df2	0.07183446
201	0x3e156670	0.14589858
202	0x3e16a39c	0.1471085
203	0x3d81f32a	0.06345208
204	0x3e2ca539	0.16859902
205	0x3e0c84e7	0.13722573
206	0x3e0ede43	0.13951974
207	0x3e013fc9	0.12621988
208	0x3e0113b3	0.12605171
209	0x3ced5605	0.028971681
210	0x3e265d6c	0.16246575
211	0x3e459319	0.19294395
212	0x3e05a7f0	0.13052344
213	0x3d87ee2b	0.06637224
214	0x3d99db87	0.07512575
215	0x3d9e4806	0.07728581
216	0x3d93c044	0.07214406
217	0x3db40306	0.08789639
218	0x3d8e4f67	0.069487385
219	0x3dd1cce6	0.102441594
220	0x3e110e77	0.14165674
221	0x3d312930	0.04325217
222	0x3e34084a	0.17581287
223	0x3db0316b	0.08603176
224	0x3d872768	0.06599313
225	0x3db8831e	0.090093836
226	0x3d08ccb4	0.033398345
227	0x3e210d52	0.15727738
228	0x3e240b7a	0.16020003
229	0x3db81fb2	0.089904204
230	0x3dd8f3b6	0.10593359
231	0x3dcbb4c4	0.09946588
232	0x3df770a2	0.1208203
233	0x3e13a883	0.14419751
234	0x3db3be9f	0.087765925
235	0x3e4923b2	0.19642523
236	0x3dc0946b	0.094033085
237	0x3df6e154	0.12054697
238	0x3e157b4d	0.14597817
239	0x3dc5e439	0.09662671
240	0x3ddea8b5	0.10872022
241	0x3e1d39a6	0.15354022
242	0x3db88b3e	0.09010933
243	0x3df1c4f0	0.11805141
244	0x3e0c175d	0.13680787
245	0x3dc441b0	0.095828414
246	0x3d941e6d	0.07232366
247	0x3dd285ce	0.102794275
248	0x3e2978d4	0.16549999
249	0x3e351be7	0.17686425
250	0x3e0d2e74	0.13787252
251	0x3e0e9b33	0.13926391
252	0x3dd4d395	0.103919186
253	0x3e2dde52	0.1697934
254	0x3dc3ac88	0.09554392
255	0x3e9747d1	0.2954698

network.4.weight f4 [128, 256]
0	0x3d2ba805	0.041908283
1	0x3dc5d964	0.096606046
2	0xbcd1dca1	-0.0256179
3	0x3db0b3e0	0.086280584
4	0xbe29bd54	-0.16576129
5	0xbe47fb1e	-0.19529387
6	0x3c64e691	0.013970987
7	0xbd798d31	-0.060925666
8	0xbd5a5914	-0.053307608
9	0x3e098df9	0.13433065
10	0x39b3f08d	0.00034320765
11	0xbd47d9e7	-0.048791792
12	0x3c59c090	0.013290539
13	0x3da59ceb	0.0808657
14	0x3cc986a7	0.02460034
15	0xbd9d078c	-0.07667455
16	0xbd870bdb	-0.06594058
17	0x3d5da170	0.054109037
18	0xbe3b7fc6	-0.1831046
19	0x3dd5cee9	0.104398556
20	0x3e226335	0.15858157
21	0xbdcf11e2	-0.10110833
22	0xbd1fd9b4	-0.039025977
23	0x3e0eaea3	0.13933806
24	0xbe2e1db4	-0.17003518
25	0xbdc4f9a9	-0.096179314
26	0x3d9bf0c5	0.076142825
27	0x3c89726d	0.016778195
28	0xbb73781f	-0.0037150455
29	0x3d82f8f2	0.06395139
30	0xbc6e1827	-0.014532126
31	0xbc808879	-0.015690075
32	0xbc945239	-0.018105613
33	0xbe06123d	-0.13092895
34	0x3db671ca	0.08908422
35	0xbd16ec37	-0.036846366
36	0x3cf1d595	0.02952079
37	0xbd7b1d07	-0.06130698
38	0x3d391c78	0.045193166
39	0xbdeae0a2	-0.114686266
40	0xbda00608	-0.0781365
41	0xbd9e24dd	-0.07721875
42	0x3bfaff1d	0.0076598064
43	0xbcf8c2d0	-0.030366331
44	0xbdf41dc6	-0.11919741
45	0xbe3cda4d	-0.1844265
46	0xbcc15069	-0.023597913
47	0xbd9e6430	-0.07733953
48	0xbb451da9	-0.0030077493
49	0xbde3e13f	-0.11126947
50	0xbd8667d5	-0.06562773
51	0xbd2aa4d7	-0.04166111
52	0x3d322e46	0.04350116
53	0xbccbaa19	-0.024861382
54	0x3daf47b0	0.08558595
55	0xbe2f56be	-0.17122933
56	0x3d8a439a	0.06751175
57	0x3c3a9b21	0.011389525
58	0xbd8a9740	-0.0676713
59	0xbd85ae80	-0.06527424
60	0xbd8be0f7	-0.06830018
61	0xbd913190	-0.070895314
62	0x3df208d8	0.11818093
63	0xbdab62c7	-0.0836845
64	0x3e4a5c58	0.19761789
65	0x3db3a4df	0.08771681
66	0x3dc9f52e	0.098612174
67	0xbd43f9cc	-0.047845647
68	0xbd1a569e	-0.03768026
69	0xbca0cfe9	-0.01963039
70	0x3e137541	0.14400198
71	0xbda0a75f	-0.078444235
72	0xbdfacfa0	-0.122466326
73	0x3d186599	0.037206266
74	0x3ced1b81	0.028943779
75	0x3d346d8c	0.044049785
76	0x3cac170a	0.02100708
77	0x3dafcabb	0.0858359
78	0xbd2df0b0	-0.042465866
79	0x3d337f81	0.04382277
80	0xbe11ddc3	-0.14244752
81	0xbdad50bf	-0.08462667
82	0x3daf9eba	0.085751966
83	0xbe204a07	-0.15653239
84	0xbde2001f	-0.11035179
85	0x3dfb4428	0.12268859
86	0xbc81cf72	-0.015845988
87	0x3dae6f75	0.085173525
88	0x3dccde2a	0.10003312
89	0xbd157e4e	-0.036497407
90	0xbce6d683	-0.028178459
91	0xbda5f87f	-0.081040375
92	0xbc989640	-0.018626332
93	0xbd4f69c4	-0.050637975
94	0x3ce638db	0.028103283
95	0xbda758a1	-0.081712015
96	0x3e181eda	0.14855519
97	0x3d7baf1c	0.061446294
98	0xbce60529	-0.028078632
99	0x3d8bbb09	0.068227835
100	0x3d69a885	0.05704548
101	0x3da0760b	0.07835015
102	0x3d5f268c	0.05448012
103	0x3b3d320f	0.0028868949
104	0x3dd49f75	0.103819765
105	0x3e116450	0.14198422
106	0xbdbc47d1	-0.091933854
107	0x3de3c635	0.11121789
108	0xbdc84d18	-0.097803295
109	0xbd895578	-0.06705755
110	0x3e07ee8c	0.13274592
111	0xbd541bc0	-0.051784277
112	0x3dddaca3	0.108239435
113	0xbd55189a	-0.052025415
114	0x3d5164c4	0.05112149
115	0xbd971fe7	-0.07379132
116	0x3e5ce146	0.2157031
117	0x3d640df2	0.05567736
118	0xbe153206	-0.14569864
119	0xbd561205	-0.05226328
120	0xbe064cf1	-0.13115288
121	0x3d52031a	0.05127249
122	0xbd913d7e	-0.07091807
123	0x3ddb1cf8	0.10698885
124	0xbe57c77b	-0.2107219
125	0xbc9c3d0f	-0.019072084
126	0xba614b3c	-0.00085942796
127	0xbe106874	-0.14102346
128	0x3d85f197	0.0654022
129	0x3d7f0c90	0.06226784
130	0xbd4a98c5	-0.0494621
131	0xbdbed76f	-0.093184344
132	0x3dab3d11	0.08361257
133	0xbdd1edb5	-0.10250417
134	0xbde0eb81	-0.10982419
135	0xbab4dcac	-0.0013798675
136	0xbe01ba96	-0.12668833
137	0xbddf486f	-0.109024875
138	0x3e1c0329	0.1523558
139	0xbc2e160f	-0.010625376
140	0xbdd07dc5	-0.10180239
141	0xbde33510	-0.11094105
142	0x3cf5f2ed	0.030023063
143	0x3e59be69	0.21264042
144	0xbce08a7c	-0.027409784
145	0x3ddd4cc6	0.10805659
146	0xbd894ad9	-0.06703729
147	0xbb0b8df2	-0.0021294323
148	0x3c9ca5fb	0.019122114
149	0xbd61213f	-0.054963347
150	0x3e1d9715	0.15389664
151	0x3d6ac273	0.057314347
152	0x3d19a23e	0.03750824
153	0x3d6f68d5	0.058449585
154	0xbda74956	-0.081682846
155	0x3dc9a04e	0.09845029
156	0x3da27084	0.07931617
157	0x3d822d1b	0.063562594
158	0x3e2c0829	0.16799988
159	0xbe4651eb	-0.19367187
160	0xbd1a3a40	-0.037653208
161	0x3dbcae27	0.092129044
162	0x3dd634cd	0.1045929
163	0x3d26a879	0.04068801
164	0x3e04db1a	0.12974206
165	0x3e0ac013	0.13549833
166	0x3e242641	0.16030218
167	0xbb0ed855	-0.0021796424
168	0xbe0fe888	-0.14053547
169	0x3e12a9ba	0.14322558
170	0x3dc0e159	0.09417982
171	0xbdda9294	-0.10672489
172	0xbda7d383	-0.081946395
173	0xbbee5da3	-0.007274346
174	0xbe1a683b	-0.15078823
175	0x3cc1c26d	0.02365228
176	0xbde9a71f	-0.11408829
177	0xbd7edbef	-0.062221464
178	0x3d2a3edb	0.04156385
179	0xbdddd82b	-0.108322464
180	0xbc75602b	-0.0149765415
181	0x3de8dc3f	0.113701336
182	0x3ddbc254	0.107304245
183	0xbdf88de8	-0.121364415
184	0x3cf0167f	0.029307602
185	0xbe38cc8e	-0.18046781
186	0x39c50f79	0.00037586296
187	0xbdb01ef2	-0.08599652
188	0x3da04cb3	0.07827129
189	0x3d86c351	0.065802224
190	0xbe1e518c	-0.15460795
191	0xbdda7b9d	-0.106681086
192	0xbcfcff5e	-0.030883487
193	0x3ddc2fc4	0.10751298
194	0xbdecdaac	-0.11565146
195	0x3cee2ca9	0.02907403
196	0xbd1228fb	-0.035683613
197	0x3d919949	0.07109315
198	0x3cba5858	0.022747204
199	0x3db71cd9	0.08941049
200	0xbd1fbecf	-0.03900033
201	0xbe015db2	-0.12633398
202	0x3c17aadf	0.009257047
203	0xbc0104aa	-0.007874647
204	0x3d418c7c	0.047253117
205	0xbe7f791a	-0.2494854
206	0x3cfb6977	0.030689938
207	0x3d8cef33	0.06881561
208	0x3d7d43d4	0.061832264
209	0x3d7ee132	0.06222648
210	0xbd83761d	-0.06419013
211	0x3dc93d26	0.09826116
212	0xbc3badf5	-0.011455049
213	0x3da32680	0.07966328
214	0x3dedf005	0.11618046
215	0x3d1d0796	0.038337313
216	0xbdab2761	-0.0835712
217	0x3d51feae	0.051268272
218	0x3d5f7677	0.054556336
219	0xbdd4f13b	-0.103975736
220	0xbda1f088	-0.07907206
221	0xbd89f8aa	-0.06736882
222	0x3bc7010f	0.0060731242
223	0xbccf9ec4	-0.02534426
224	0xbda947d8	-0.08265656
225	0x3e09e32d	0.13465567
226	0xbcb111ac	-0.021614872
227	0x3da68ea4	0.08132675
228	0x3db15b12	0.086599484
229	0x3dde0a8c	0.108418554
230	0xbb41c2c3	-0.002956555
231	0x3cf9fd3d	0.030516261
232	0x3de3dd7b	0.111262284
233	0xbdb7857b	-0.08961006
234	0xbca38efc	-0.019965641
235	0xbd086c46	-0.033306383
236	0x3d1f9408	0.038959533
237	0x3cb0823c	0.021546476
238	0xbd97a432	-0.07404365
239	0xbab1d0c4	-0.0013566245
240	0xbd76beed	-0.060240675
241	0xbe311d32	-0.17296293
242	0x3dff05c9	0.12452275
243	0x3dbca5fa	0.09211345
244	0x3d8194c2	0.063272014
245	0xbccb9e89	-0.024855869
246	0xbd865509	-0.06559188
247	0xbd9671c6	-0.07345919
248	0xbbdeff64	-0.0068053473
249	0xbdf0b9a2	-0.11754157
250	0x3d5a3b03	0.053278934
251	0x3d91fb67	0.07128029
252	0xbd8fd80e	-0.07023631
253	0x3ddbeb1d	0.10738204
254	0x3ca7e70d	0.020495916
255	0xbda0c1fd	-0.078495
