models/last_epoch_model.pth (torch, 13953 bytes, 5 tensors)

net.0.weight f4 [64, 8]
0	0x3e8abe49	0.270983
1	0xbdd367ab	-0.103225075
2	0x3ea3e9ff	0.32014462
3	0xbe2c2d47	-0.16814147
4	0x3e0b36e7	0.13595162
5	0x3eb72a11	0.35774282
6	0xbe42bd8d	-0.1901762
7	0x3e1bde22	0.15221456
8	0x3e3f96d8	0.18709886
9	0xbde4f3fb	-0.11179348
10	0xbea2e438	-0.31814742
11	0x3ccbedae	0.024893608
12	0x3e747511	0.23872782
13	0xbe7df1bc	-0.24799246
14	0xbe956222	-0.29176432
15	0xbdc5d688	-0.09660059
16	0xbc99fe52	-0.018798027
17	0xbd1c8009	-0.03820804
18	0xbd936ef2	-0.071988955
19	0x3e93abc6	0.2884199
20	0x3e6b8254	0.22998935
21	0x3ebb2daa	0.36558276
22	0x3e9202ce	0.28517765
23	0xbd84a9a3	-0.06477668
24	0xbca66b38	-0.020314798
25	0xbe993cb0	-0.29929113
26	0xbe257582	-0.16158107
27	0x3e19c11b	0.1501507
28	0x3e7cd8a4	0.24692017
29	0xbe10604e	-0.14099237
30	0xbdf094ba	-0.11747117
31	0xbd94cdcd	-0.07265816
32	0xbe7f84c1	-0.24952985
33	0x3e851bc9	0.2599776
34	0xbed3e3a1	-0.41384605
35	0xbed9d428	-0.42544675
36	0x3eed2e89	0.46324566
37	0xbd4bf2ba	-0.04979203
38	0xbe5375e1	-0.20650436
39	0xbd6ec6c4	-0.058295026
40	0xbd223cb6	-0.03960868
41	0xbb2f63e6	-0.0026762425
42	0x3e101505	0.14070518
43	0x3e468294	0.19385749
44	0xbd97fb87	-0.07421022
45	0x3e9bb94d	0.3041481
46	0x3ec290cc	0.38001096
47	0x3eea78c9	0.45795277
48	0x3e65051f	0.22365235
49	0xbed62d65	-0.41831508
50	0xbc533b82	-0.012892606
51	0x3ec676f1	0.3876262
52	0x3d5b6ba5	0.053569455
53	0xbe19cdc3	-0.15019898
54	0xbe9eaf0f	-0.30992934
55	0xbec36e5f	-0.38170144
56	0xbe92ba5a	-0.286578
57	0x3e45aa2e	0.193032
58	0xbe25f421	-0.16206409
59	0x3e34cfb4	0.17657357
60	0x3e82350e	0.25431103
61	0xbd9df339	-0.07712407
62	0x3ea32224	0.31861985
63	0x3e71e0a0	0.23620844
64	0xbdd1b6b5	-0.10239927
65	0xbecd7666	-0.40129393
66	0xbeee4ffd	-0.465454
67	0xbe96b143	-0.29432115
68	0x3dcc2797	0.09968489
69	0xbd05beee	-0.032652788
70	0xbdd5a576	-0.1043195
71	0xbdfe9d5c	-0.12432358
72	0xbe5d4f1b	-0.21612208
73	0xbe401206	-0.18756875
74	0xbd7d85b2	-0.06189508
75	0xbcf1d630	-0.029521078
76	0xbe2584e0	-0.16163969
77	0xbccd8708	-0.025088802
78	0xbe8f879a	-0.28033143
79	0xbee11e79	-0.4396856
80	0x3cc243d4	0.023713984
81	0xbe860907	-0.26178762
82	0xbea0e434	-0.31424105
83	0xbe1bf170	-0.1522882
84	0x3eb4b514	0.35294402
85	0xbc649a4a	-0.013952801
86	0xbe6dd83c	-0.23227018
87	0xbe8003fa	-0.25003034
88	0xbe83d58e	-0.25748867
89	0x3dc0eec7	0.09420543
90	0xbe755bc4	-0.23960787
91	0x3e70e33e	0.23524186
92	0xbde39fa4	-0.111144334
93	0x3d1217f1	0.035667364
94	0x3eedf3c8	0.46475053
95	0x3ebb1a18	0.36543345
96	0x3e3139cd	0.17307205
97	0xbe3378ba	-0.17526522
98	0x3ea23e45	0.31688133
99	0x3ebc350b	0.3675922
100	0xbde0e6ef	-0.10981547
101	0x3e0dad6c	0.13835686
102	0xbdec8222	-0.11548258
103	0x3e4dd5a3	0.20101027
104	0x3e5d0292	0.21583012
105	0x3e9d01fa	0.3066557
106	0x3eb38f89	0.35070446
107	0xbe3acb31	-0.18241574
108	0xbe627feb	-0.2211911
109	0xbd848a21	-0.064716585
110	0xbe39a754	-0.18130237
111	0x3e2a7a0f	0.16648124
112	0xbe54af7c	-0.20770067
113	0x3d2336b2	0.039847083
114	0xbd419872	-0.047264524
115	0x3bb38c50	0.005479373
116	0xbe9e6fd7	-0.30944702
117	0xbe8d5428	-0.2760327
118	0x3e7a390b	0.24435823
119	0xbee13fe2	-0.4399405
120	0xbe765a25	-0.24057825
121	0xbdc03cea	-0.093866184
122	0xbc4eac3e	-0.012614308
123	0x3e91cada	0.28475076
124	0xbdfccc43	-0.12343647
125	0x3ee2732e	0.442285
126	0xbe20829e	-0.15674827
127	0x3e156375	0.14588721
128	0x3e7f658c	0.24941081
129	0x3e24c135	0.16089328
130	0x3d3cdf43	0.046111356
131	0x3e979cd7	0.29611847
132	0x3dbb88da	0.09156962
133	0xbe412682	-0.18862346
134	0x3a951dc9	0.0011376675
135	0x3e46ac6c	0.19401711
136	0x3e86fe6a	0.26365978
137	0x3ec1b16a	0.3783067
138	0xbe2a17d0	-0.16610646
139	0x3e4740a6	0.19458255
140	0xbeb5282c	-0.3538221
141	0x3e81b0bd	0.25330153
142	0xbe1dfa5d	-0.15427537
143	0x3d878c52	0.06618561
144	0x3e32bcb6	0.174548
145	0xbe942372	-0.28933293
146	0x3e34bfeb	0.17651336
147	0x3d8e4cbb	0.06948229
148	0x3e855f9d	0.2604951
149	0xbdc4ec84	-0.09615424
150	0xbd71c3f1	-0.059024755
151	0x3e47eeda	0.19524708
152	0x3e430153	0.19043474
153	0x3d3366f4	0.043799356
154	0x3e48f903	0.1962624
155	0xbdc36dec	-0.0954245
156	0xbe9650f6	-0.29358643
157	0x3ec0f0be	0.37683672
158	0xbe85188b	-0.25995287
159	0x3e6d1a33	0.23154525
160	0xbd611b03	-0.0549574
161	0x3e8c020f	0.2734532
162	0x3e1e759c	0.15474552
163	0x3e6c0470	0.23048568
164	0xbed7d632	-0.42155606
165	0xbeb7e515	-0.35916963
166	0x3dd4d01b	0.103912555
167	0xbd12718d	-0.03575282
168	0x3e7cf1e9	0.24701656
169	0x3ec19727	0.37810633
170	0xbe0cb3c0	-0.13740444
171	0xbe661ada	-0.2247118
172	0xbdf9d8d4	-0.1219956
173	0xbdb82bd8	-0.089927375
174	0x3e913b1e	0.28365415
175	0x3e641282	0.22272685
176	0x3e2c7d46	0.16844663
177	0xb9ed98a3	-0.00045317886
178	0x3e00cc8d	0.1257803
179	0xbdbc65bc	-0.09199092
180	0x3e1f43b1	0.15553166
181	0x3ebb5959	0.36591604
182	0xbd9e19e4	-0.07719782
183	0xbed5b2d8	-0.4173801
184	0x3d3b08bc	0.045662627
185	0x3ea24d8c	0.3169979
186	0xbe3e9be5	-0.18614157
187	0x3c25b93f	0.010114967
188	0x3df64c3a	0.12026258
189	0xbe80eb1d	-0.25179377
190	0xbe679490	-0.22615266
191	0xbea0d0c4	-0.31409276
192	0x3e9ba838	0.30401778
193	0xbd92014f	-0.07129156
194	0xbdee65da	-0.116405204
195	0xbe9ce8c1	-0.30646327
196	0x3dd48a4f	0.10377943
197	0xbd9f01bc	-0.07764003
198	0x3e13e3ca	0.14442363
199	0xbe74fdb1	-0.239249
200	0x3ca7da88	0.020489946
201	0xbe00e232	-0.12586287
202	0x3e798922	0.24368718
203	0x3e07fc54	0.1327985
204	0x3e81d3b7	0.25356838
205	0xbebcbc7a	-0.36862546
206	0x3e975c46	0.29562587
207	0x3ec366b1	0.38164285
208	0x3d912a39	0.070881315
209	0x3e3770a8	0.17914069
210	0xbea666b8	-0.32500243
211	0x3daa6878	0.08320707
212	0xbd3a1c59	-0.04543719
213	0x3e7a67bf	0.24453638
214	0xbe0e25ba	-0.13881579
215	0x3ed9782a	0.4247449
216	0xbe43d8ec	-0.19125718
217	0xbd1925c7	-0.037389543
218	0x3df0a4d1	0.11750186
219	0xbe2488ac	-0.16067761
220	0xbdb77938	-0.089586675
221	0x3d91076f	0.07081496
222	0x3ebba194	0.36646712
223	0x3e1c2849	0.15249743
224	0x3d817bad	0.063224174
225	0x3eb33d11	0.35007527
226	0xbeb4ed53	-0.35337314
227	0xbea76c72	-0.32699925
228	0x3e3565ec	0.17714661
229	0xbdc35cac	-0.0953916
230	0xbe3af8a4	-0.18258911
231	0xbe84142f	-0.2579665
232	0x3ea04c16	0.3130805
233	0xbe34184c	-0.17587394
234	0x3d4c19e2	0.04982937
235	0xbe1f41e0	-0.15552473
236	0x3e883c43	0.26608476
237	0x3eb26974	0.3484608
238	0x3eb7fe11	0.35936025
239	0x3e9e990e	0.30976146
240	0x3e91f93d	0.28510466
241	0xbda4d141	-0.080477245
242	0x3ecbe9b0	0.39826727
243	0xbe2ebeb9	-0.17064942
244	0x3e34aa0e	0.17642996
245	0x3e8b3513	0.2718893
246	0xbec4c647	-0.38432524
247	0xbe7169d6	-0.2357553
248	0x3dd594ab	0.10428747
249	0x3ddddb1c	0.108328074
250	0x3e015581	0.12630273
251	0x3e9435cd	0.28947297
252	0x3cdcf5da	0.0269727
253	0x3eac0ecc	0.3360504
254	0x3f1d315f	0.6140346
255	0x3eed9318	0.46401286

net.0.bias f4 [64]
0	0xbe33c174	-0.17554265
1	0x3b4ce34d	0.0031263412
2	0xbd71328d	-0.0588861
3	0x3e4b0311	0.19825388
4	0xbe7b22d3	-0.24525003
5	0x3ca4d230	0.020119756
6	0xbe0d5e0b	-0.13805406
7	0xbee486a8	-0.44633985
8	0x3e4c1f95	0.19933923
9	0x3d39ced8	0.045363277
10	0x3e5153db	0.20442145
11	0x3e5adb9b	0.21372835
12	0x3d99140b	0.07474526
13	0x3e6c337d	0.23066516
14	0xbeefe730	-0.4685607
15	0xbcf2d54f	-0.02964273
16	0x3de91c25	0.11382321
17	0xbe5fcafb	-0.21854775
18	0xbe67d108	-0.22638333
19	0xbdf395c0	-0.11893797
20	0xbea435bb	-0.32072243
21	0xbe8da347	-0.27663633
22	0xbe7473bd	-0.23872276
23	0xbe627e26	-0.22118434
24	0xbe7281af	-0.23682283
25	0xbe2881d8	-0.16455781
26	0xbe86bb84	-0.26314938
27	0x3e905a74	0.2819401
28	0x3e6df713	0.23238783
29	0xbcad0203	-0.021119123
30	0xbdfe516b	-0.12417873
31	0xbe8a1cef	-0.269752
32	0x3c8dd134	0.01731167
33	0x3e5db6fd	0.21651836
34	0xbe488bd4	-0.1958459
35	0xbe8b8727	-0.2725155
36	0x3cd5c3f5	0.026094416
37	0x3e9a5eb4	0.30150378
38	0xb9f2a75c	-0.0004628253
39	0xbe47860b	-0.19484727
40	0xbe8a85ad	-0.27055112
41	0xbebecf5b	-0.37267575
42	0x3daa233f	0.08307504
43	0xbc41a9a4	-0.011820231
44	0xbcacd650	-0.021098286
45	0xbe65cae1	-0.22440673
46	0x3d814d51	0.06313575
47	0xbe08456d	-0.13307734
48	0x3e3fd8b7	0.18735014
49	0x3ebc5fcc	0.36791837
50	0xbd482577	-0.048863854
51	0x3e885d7f	0.26633832
52	0xbe555970	-0.20834899
53	0xbe5b011f	-0.21387146
54	0xbe87f67c	-0.2655524
55	0xbea6b978	-0.32563376
56	0xbe42f797	-0.1903976
57	0xbe757751	-0.23971297
58	0x3d087052	0.033310242
59	0xbea54fca	-0.32287437
60	0x3e5589ef	0.20853399
61	0x3e57e473	0.2108324
62	0x3d58fb9d	0.052974332
63	0xbe5fdf04	-0.21862417

net.3.weight f4 [32, 64]
0	0x3e08b726	0.13351116
1	0x3c2b13af	0.010441705
2	0x3d9cb411	0.076515324
3	0x3d0d047f	0.034428116
4	0xbdce9ea9	-0.10088856
5	0x3e42a2d0	0.1900742
6	0xbde06c37	-0.1095814
7	0x3ddc3596	0.10752408
8	0x3e07553f	0.13216113
9	0xbe2fceaf	-0.17168687
10	0x3e14f536	0.14546666
11	0xbcdd4bcf	-0.027013687
12	0xbdd36007	-0.1032105
13	0xbb683d37	-0.0035436878
14	0xbe1284c4	-0.14308459
15	0x3de8cb72	0.11366929
16	0x3d3b2c8c	0.04569678
17	0x3d4d1302	0.050066955
18	0xbc5bbce4	-0.013411734
19	0x3cb55065	0.022133062
20	0xbd7ac85a	-0.061226226
21	0x3e1b47f4	0.15164167
22	0xbe60711c	-0.21918148
23	0xbda9b13d	-0.08285759
24	0xbd8064b1	-0.06269205
25	0xbdba00d9	-0.09082193
26	0xbd1b603f	-0.037933584
27	0xbd9721fb	-0.07379528
28	0xbde8173b	-0.11332556
29	0xbc8d5d56	-0.01725642
30	0xbd923d8b	-0.07140645
31	0x3d5bb9b7	0.05364391
32	0x3de9f24f	0.1142317
33	0x3dde53cf	0.10855829
34	0x3e0bb848	0.13644516
35	0xbc412a2a	-0.011789838
36	0x3d9d74e5	0.076883115
37	0x3dcb87ce	0.09938012
38	0x3df8442a	0.12122376
39	0xbd7ec750	-0.062201798
40	0x3e343019	0.17596473
41	0x3d960f3f	0.07327127
42	0x3dfad998	0.12248534
43	0x3dbc9bd1	0.09209407
44	0xbe4b44fc	-0.19850534
45	0x3dedeecb	0.11617812
46	0x3e22d8ba	0.15902987
47	0x3c2e2728	0.010629453
48	0x3cd55d0c	0.026045345
49	0xbe026c76	-0.12736687
50	0xba232a4c	-0.0006224259
51	0x3ccd064c	0.025027417
52	0xbe07d0d1	-0.13263251
53	0xbd8d9615	-0.069133915
54	0x3e9aa92e	0.302072
55	0xbcbada88	-0.022809282
56	0x3de25eeb	0.110532604
57	0x3d5f2c35	0.05448552
58	0x3c08c070	0.008346662
59	0x3d83f8b2	0.06443919
60	0x3d868506	0.06568341
61	0x3d7b4dbb	0.061353426
62	0xbad34efe	-0.0016121564
63	0x3e03fbbc	0.12888998
64	0x3de80abd	0.11330173
65	0xbd97eb0a	-0.07417877
66	0x3d059c39	0.03261969
67	0x3dc32e24	0.09530285
68	0x3c73f10d	0.014889014
69	0x3d9d008c	0.0766612
70	0x3d835290	0.06412232
71	0x3e2fddd7	0.17174469
72	0x3d59f430	0.05321139
73	0xbd8d02fc	-0.06885335
74	0x3c76119e	0.015018849
75	0x3e165481	0.14680673
76	0x3d984923	0.07435825
77	0x3e20fd5f	0.15721653
78	0x3e691447	0.22761641
79	0x3c5f1657	0.013616166
80	0x3d9dc4b5	0.077035345
81	0x3e240612	0.1601794
82	0x3e2b4ef8	0.16729343
83	0x3b57221b	0.0032826725
84	0xbd315dd7	-0.043302383
85	0x3db5a483	0.08869269
86	0xbd5972f7	-0.053088155
87	0xbd22eeb1	-0.039778415
88	0xbe1959dd	-0.14975686
89	0x3e1b7bce	0.15183946
90	0x3d456d0f	0.04819971
91	0x3d9def75	0.077116884
92	0xbd76dbeb	-0.060268324
93	0x3db69874	0.08915797
94	0xba5e5529	-0.0008481318
95	0x3e2fe3fd	0.17176814
96	0x3d0842ac	0.03326671
97	0x3d90995c	0.07060501
98	0x3d83c3af	0.06433808
99	0x3e2d8c1d	0.1694798
100	0x3dd67046	0.10470633
101	0xba06b37e	-0.0005138441
102	0x3d984b7c	0.074362725
103	0x3cfcaf41	0.030845286
104	0x3c840fb4	0.01612077
105	0x3e3693fc	0.17829889
106	0xbddd6a5a	-0.108113006
107	0xbd9cf0cd	-0.076631166
108	0x3dd9284e	0.10603391
109	0x3d0c6a99	0.034281347
110	0x3dd677a4	0.104720384
111	0x3e0590b5	0.13043483
112	0xbd71e1fc	-0.059053406
113	0xbd5e3607	-0.054250743
114	0x3cf60b7f	0.030034779
115	0x3e046daf	0.12932466
116	0xbd13fac5	-0.036127824
117	0x3d979721	0.074018724
118	0x3e30929d	0.17243429
119	0x3ea3497e	0.31892008
120	0x3ce3b3ee	0.027795758
121	0x3e1f85db	0.15578406
122	0x3de99c4f	0.114067666
123	0x3e644ea3	0.22295623
124	0x3ce4b3df	0.0279178
125	0x3e0520bc	0.13000768
126	0x3d0c64eb	0.03427593
127	0x3e4b6d9a	0.19866028
128	0xbd95de95	-0.07317845
129	0xbe88863f	-0.26664922
130	0x3d6231ad	0.055223156
131	0xbda41dc5	-0.080134906
132	0xbd29ef17	-0.04148778
133	0x3e670806	0.22561654
134	0xbdf32f36	-0.11874239
135	0x3d44050c	0.047856376
136	0x3da958cc	0.0826889
137	0xbd8fa5a0	-0.07014012
138	0xbc6f0c92	-0.014590399
139	0x3df7f109	0.12106521
140	0xbd95cfc1	-0.073150165
141	0xbe0b8e36	-0.13628468
142	0xbdc41223	-0.09573772
143	0xba697306	-0.00089053845
144	0x3d842456	0.06452243
145	0xbcf84713	-0.030307328
146	0xbe40e672	-0.18837908
147	0x3dd071e3	0.10177972
148	0xbd7787b1	-0.06043214
149	0x3d8b0ff0	0.06790149
150	0x3dd1312b	0.10214456
151	0xbd1d5729	-0.0384132
152	0x3c89bf14	0.016814746
153	0xbd80be63	-0.062863134
154	0x3d811f20	0.06304765
155	0x3d02eef2	0.031966157
156	0xbc7d9ed5	-0.015479763
157	0x3e2a7554	0.1664632
158	0xbdc420c2	-0.095765606
159	0x3e993cfd	0.29929343
160	0xbdf5912a	-0.119905785
161	0xbdebc6f8	-0.1151256
162	0x3e5aba04	0.21360022
163	0x3d11e860	0.035622
164	0xbba9bc74	-0.005179936
165	0xbd01c94e	-0.03168612
166	0x3dd94beb	0.10610183
167	0x3d8d7d98	0.06908721
168	0x3daf253c	0.08552024
169	0xbd9f5c44	-0.0778127
170	0x3db8da96	0.09026067
171	0xbcef6faa	-0.02922805
172	0x3de5b788	0.112166464
173	0x3c483ae0	0.012221068
174	0xbdf2f4ff	-0.118631355
175	0x3da49af3	0.08037367
176	0x3b199106	0.0023432388
177	0xbc16567d	-0.009175894
178	0xbe08b7af	-0.1335132
179	0xbd930d61	-0.07180286
180	0xbe42674e	-0.1898472
181	0x3e1d58c8	0.15365899
182	0xbd32f419	-0.04368982
183	0x3bdc85e0	0.0067298263
184	0xbe41cb7d	-0.18925281
185	0x3c961237	0.018319232
186	0xbb9de623	-0.004818694
187	0x3d187f93	0.03723104
188	0xbc60dc94	-0.013724465
189	0xbca001f1	-0.019532176
190	0xbc70a8f6	-0.014688721
191	0x3e4869e6	0.19571647
192	0x3d4f208a	0.05056814
193	0x3b56b32d	0.0032760606
194	0xbd57562d	-0.052572418
195	0xbd5e5d90	-0.054288447
196	0xbd1b87e4	-0.037971392
197	0x3d5924c0	0.053013563
198	0xbe0ad98c	-0.1355955
199	0x3b6a9b0e	0.0035797986
200	0x3dc8232a	0.09772332
201	0xbd9407ce	-0.07228051
202	0xbe703b5d	-0.23460145
203	0xbd0ed8b8	-0.034874648
204	0xbdc0ff72	-0.09423722
205	0x3e326096	0.17419657
206	0xbdd5c94f	-0.10438787
207	0xbe9276d6	-0.2860629
208	0x3dbf96aa	0.09354909
209	0xbe075d5a	-0.13219205
210	0xbd96f78e	-0.07371436
211	0x3c81d4b5	0.015848497
212	0xbe705422	-0.23469594
213	0xbd91e125	-0.07123021
214	0xbd9e9991	-0.07744134
215	0x3e17b87b	0.14816467
216	0xbcdaf174	-0.026726462
217	0x3d92154b	0.071329676
218	0x3b7d236a	0.0038625845
219	0x3d79205a	0.06082187
220	0x3d279de2	0.040922053
221	0x3d1bd11d	0.038041223
222	0x3e01255b	0.12611906
223	0x3cf9232c	0.03041228
224	0xbdadc45c	-0.08484718
225	0xbd6624f0	-0.05618757
226	0xbc71895b	-0.014742221
227	0x3d1cafc2	0.038253553
228	0x3ca8f032	0.020622347
229	0xbd697a53	-0.057001423
230	0x3e375448	0.17903244
231	0xbe84bcd9	-0.2592533
232	0xbe80b02d	-0.2513441
233	0x3ca69b18	0.020337626
234	0x3a946bb8	0.0011323607
235	0x3b9174c9	0.0044389707
236	0x3e08649b	0.13319628
237	0xbe19a689	-0.15004934
238	0x3e3260c0	0.1741972
239	0xbdd0dccb	-0.10198363
240	0x3dda540c	0.10660562
241	0x3cc0621c	0.023484282
242	0x3e0a8ae8	0.13529551
243	0x3d90b276	0.07065289
244	0xbcf94c72	-0.03043196
245	0xbe040275	-0.12891562
246	0x3d6dcfc9	0.058059487
247	0xbe5b65d2	-0.2142556
248	0x3d98cda9	0.074611016
249	0x3df143a3	0.11780479
250	0xbe51f492	-0.20503452
251	0xbd669848	-0.05629757
252	0xbd5d2290	-0.05398804
253	0xbe8316df	-0.25603387
254	0x3e2977bf	0.16549586
255	0xbd1552a6	-0.036455773

net.3.bias f4 [32]
0	0xbdde5dec	-0.10857758
1	0x3cce4cfe	0.025183197
2	0x3ba2d58d	0.004969305
3	0xbd6d4c6a	-0.057934202
4	0x3d7a88a2	0.06116546
5	0xbcb6e0d4	-0.022324003
6	0xbcc92145	-0.024551997
7	0x3da6358a	0.081156805
8	0xbbf81cac	-0.0075717773
9	0x3d00ece3	0.031475913
10	0x3e584aa9	0.2112223
11	0x3d84addb	0.06478473
12	0x3e0eb626	0.13936672
13	0x3de6e1e2	0.112735525
14	0x3d94c9f5	0.07265083
15	0x3d3d8dc1	0.046277765
16	0x3e1b7cde	0.15184352
17	0x3df3aab6	0.11897795
18	0xbd050e05	-0.032484073
19	0xbdb7c714	-0.08973518
20	0x3c879582	0.016550783
21	0x3b899cee	0.0041996157
22	0x3d67343d	0.056446303
23	0x3e06b173	0.13153629
24	0x3e2bd29a	0.16779557
25	0x3d25a9a9	0.040445004
26	0xbc7f07d9	-0.015565836
27	0x3baf8289	0.005356137
28	0x3d332457	0.04373583
29	0x3de76493	0.1129848
30	0x3e25c850	0.16189694
31	0xbcb7ca02	-0.022435192

net.5.weight f4 [1, 32]
0	0x3ea33964	0.31879723
1	0x3ddb516e	0.10708891
2	0x3eacc863	0.33746633
3	0xbe24a1d2	-0.16077355
4	0xbe2e3fe8	-0.17016566
5	0xbec5ee3b	-0.38658318
6	0x3e0674da	0.13130513
7	0x3dc59de7	0.09649258
8	0xbdf7c4fa	-0.12098117
9	0x3e617b43	0.22019677
10	0xbe50f6c8	-0.2040664
11	0xbe10cbe3	-0.14140277
12	0x3e1d1584	0.15340239
13	0x3e5006d7	0.20315109
14	0x3e03555c	0.12825531
15	0xbe594b47	-0.21220122
16	0xbe328036	-0.17431721
17	0xbe2291f9	-0.15875997
18	0x3e4b56df	0.19857357
19	0xbe68db59	-0.22739924
20	0x3e511587	0.20418368
21	0x3e49f296	0.19721445
22	0x3d882a21	0.066486605
23	0xbde710a6	-0.11282472
24	0xbe5d06f3	-0.21584682
25	0xbe01ee6d	-0.12688608
26	0x3e258c52	0.16166809
27	0x3e4543bf	0.19264124
28	0xbdb39b51	-0.08769859
29	0xbe30a795	-0.17251427
30	0x3e92237d	0.285427
31	0x3e797638	0.24361503
